A1/MLP Classification on Image Features/best_canny_model.pth (torch, 454754 bytes, 6 tensors)

network.0.weight f4 [128, 784]
0.02560709 0.0052638985 0.02906682 0.019761253 -0.02422111 0.0036682116 0.013740741 0.0028116656
-0.047119804 -0.05479981 -0.07864621 -0.06268273 -0.07161761 -0.10658646 -0.05937321 -0.08351938
-0.06586774 -0.08327904 -0.02609686 -0.07562087 0.01747804 0.019316679 0.023232318 0.023900347
0.02444925 0.047755573 -0.003527902 -0.014107658 -0.012270847 -0.03328933 -0.009333746 -0.028389312
-0.06606666 -0.03598481 -0.058010973 -0.013682452 -0.045096263 -0.073393635 -0.052701786 -0.026867932
-0.06534985 -0.0390682 -0.03907747 -0.071626 -0.03717126 -0.05729599 -0.037733216 0.015993595
0.029222649 0.056571532 0.04131242 0.012289784 -0.006860161 0.026448917 0.0026465692 -0.037587505
0.0058357897 -0.02947464 -0.042273074 -0.063345805 -0.022346467 -0.054767054 -0.069693424 -0.030018589
0.0015846405 -0.06603638 -0.018823836 -0.047111318 -0.03205396 -0.016679585 -0.049283963 -0.031924628
-0.06968423 -0.020243628 -0.043412637 -0.0031533572 0.044051725 0.011191678 0.05368635 0.07447231
0.085474186 -0.009828606 -0.0028541272 0.002648032 -0.03233793 -0.025150035 0.0028912788 -0.046808593
-0.027609693 -0.06616812 -0.011675712 -0.028741831 -0.019974995 -0.0266531 -0.050403643 -0.05273864
-0.021436647 -0.039088815 -0.06776368 -0.051568843 -0.046201635 -0.039699063 -0.02851039 0.008623549
-0.0037844253 0.04661929 0.0020049368 0.007639013 0.024814675 0.018100537 -0.004535768 -0.020628002
-0.026225615 -0.06133716 -0.07220288 -0.07186473 -0.034073193 -0.059701968 -0.083528474 -0.042842437
-0.059500042 -0.0024006516 -0.061895877 -0.046383876 -0.07799637 -0.02907181 -0.06415526 -0.053130995
-0.06766555 -0.02295816 -0.039635614 0.012816276 0.02341932 0.028907264 0.027897399 0.014993668
0.02715635 0.02585163 0.025834596 -0.0101621365 -0.059515763 -0.06834168 -0.057053834 -0.048821814
-0.035750847 -0.092149526 -0.048390325 -0.06579425 -0.072797924 -0.09238883 -0.09468516 -0.0535705
-0.03595796 -0.09098562 -0.0847891 -0.02586016 -0.03416381 -0.019982442 -0.019420007 0.021726608
0.019563692 0.02736408 0.0525933 0.022509508 -0.015061439 -0.033957265 -0.0019208428 -0.0873498
-0.07599487 -0.093115084 -0.08773236 -0.050394654 -0.11226872 -0.117432065 -0.076000184 -0.058987647
-0.0653225 -0.049597804 -0.090271175 -0.12367194 -0.039833847 -0.06479643 -0.017223686 -0.05339098
-0.005443457 0.037321035 0.03271228 -0.004834397 0.026917707 -0.0021349855 -0.018874217 -0.042182554
-0.049013276 -0.01723477 -0.065652736 -0.034397624 -0.09755939 -0.111858614 -0.07487169 -0.11159528
-0.10198775 -0.12285889 -0.08835438 -0.14025858 -0.13560458 -0.1199696 -0.07877747 -0.086535305
-0.09302941 -0.06662441 -0.021179833 -0.0044525256 0.004954741 -0.028562946 -0.029444966 -0.00017347153
-0.013929 -0.013987782 0.016722193 0.012011002 -0.0027737427 0.0029218134 -0.020598268 -0.056321297
-0.095665775 -0.07723864 -0.08467478 -0.1335098 -0.10182644 -0.15353236 -0.13949375 -0.12507313
-0.075027786 -0.085553 -0.13395503 -0.08154691 -0.02545593 -0.026231488 -0.011794053 0.011380478
0.050652973 0.064558476 -0.0045217345 -0.03720778 -0.043471836 0.00020606769 -0.012692915 0.018559864
-0.00785893 -0.017527726 -0.046081875 -0.02244124 -0.070661694 -0.10152271 -0.10436618 -0.14170769
00000000: f6c5 d13c c87c ac3b 8a1d ee3c 5ae2 a13c
00000010: 596b c6bc 6166 703b d820 613c ec43 383b
00000020: b200 41bd c475 60bd 4411 a1bd ce5f 80bd
00000030: 41ac 92bd 004a dabd 5331 73bd 350c abbd
00000040: aae5 86bd 348e aabd 15c9 d5bc 1ddf 9abd
00000050: 1b2e 8f3c 033e 9e3c b451 be3c a9ca c33c
00000060: cb49 c83c 599b 433d 6034 67bb ce23 67bc
00000070: aa0b 49bc 645a 08bd 91ec 18bc b490 e8bc
00000080: f54d 87bd cf64 13bd ea9c 6dbd 5d2c 60bc
00000090: dcb6 38bd 674f 96bd d4dd 57bd 231a dcbc
000000a0: 24d6 85bd fa05 20bd b20f 20bd a7b0 92bd
000000b0: e440 18bd 33af 6abd 258e 1abd 0005 833c
000000c0: 5664 ef3c 8db7 673d 3637 293d 175b 493c
000000d0: 34cb e0bb 66ab d83c 1072 2d3b 5bf5 19bd
000000e0: 273a bf3b cd74 f1bc 8826 2dbd 72bb 81bd
000000f0: f00f b7bc 6b53 60bd 6dbb 8ebd 8be9 f5bc
00000100: b6b3 cf3a 153e 87bd 7234 9abc ccf7 40bd
00000110: 034b 03bd a0a3 88bc fbdd 49bd 66c3 02bd
00000120: 9bb6 8ebd f7d5 a5bc 73d1 31bd 8ea8 4ebb
00000130: 956f 343d 4d5d 373c 38e6 5b3d f084 983d
00000140: 170d af3d 2908 21bc 4f0c 3bbb 9b8a 2d3b
00000150: c774 04bd 7207 cebc 9c7b 3d3b 5eba 3fbd
00000160: b92d e2bc 2783 87bd 7c4b 3fbc fd73 ebbc
00000170: 9aa2 a3bc 9a57 dabc 0d74 4ebd 7904 58bd
00000180: e89b afbc 981b 20bd afc7 8abd da39 53bd
00000190: ed3d 3dbd 7c9b 22bd 9f8e e9bc c949 0d3c
000001a0: 1f04 78bb def3 3e3d 4265 033b b050 fa3b
000001b0: 2548 cb3c 9447 943c c8a0 94bb 0efc a8bc
000001c0: 1ad7 d6bc ad3c 7bbd 1bdf 93bd d12d 93bd
000001d0: 5590 0bbd 0d8a 74bd fa10 abbd 8d7b 2fbd
000001e0: 51b6 73bd 4054 1dbb 8886 7dbd 05fd 3dbd
000001f0: 90bc 9fbd 0128 eebc d563 83bd e39f 59bd
00000200: 3c94 8abd c012 bcbc f458 22bd 5cfb 513c
00000210: e0d9 bf3c edce ec3c 1689 e43c 00a8 753c
00000220: fe76 de3c ccc6 d33c 13a3 d33c 177f 26bc
00000230: cdc6 73bd b9f6 8bbd 48b1 69bd 62f9 47bd
00000240: 7b6f 12bd e4b8 bcbd ef34 46bd 23bf 86bd
00000250: 1417 95bd 5b36 bdbd 4bea c1bd be6c 5bbd
00000260: a748 13bd ab56 babd e8a5 adbd b0d8 d3bc
00000270: 5aef 0bbd 38b2 a3bc b516 9fbc 00fc b13c
00000280: 0944 a03c a32a e03c 126c 573d dc65 b83c
00000290: 41c4 76bc c616 0bbd cac4 fbba 74e4 b2bd
000002a0: 33a3 9bbd 1fb3 bebd 06ad b3bd a06a 4ebd
000002b0: 25ed e5bd 3980 f0bd fca5 9bbd 089d 71bd
000002c0: cec7 85bd 1127 4bbd 18e0 b8bd b747 fdbd
000002d0: d128 23bd feb3 84bd b018 8dbc 80b0 5abd
000002e0: 075f b2bb f1dd 183d 50fd 053d dd69 9ebb
000002f0: 8682 dc3c 1deb 0bbb 1a9e 9abc 9dc7 2cbd
00000300: 25c2 48bd ef2f 8dbc f174 86bd 86e4 0cbd
00000310: 38cd c7bd 2116 e5bd 5456 99bd 118c e4bd
00000320: f4de d0bd 719d fbbd 24f3 b4bd f29f 0fbe
00000330: eddb 0abe 9fb2 f5bd 1556 a1bd 6c39 b1bd
00000340: 3486 bebd 6172 88bd 5481 adbc 7ee6 91bb
00000350: 615b a23b d7fc e9bc 9236 f1bc e9e5 35b9
00000360: 7636 64bc 032d 65bc fbfc 883c cbc9 443c
00000370: aec7 35bb e57b 3f3b b3bd a8bc 29b1 66bd
00000380: 6bec c3bd 4b2f 9ebd f969 adbd cbb6 08be
00000390: 618a d0bd 9637 1dbe 73d7 0ebe 2c13 00be
000003a0: 2ba8 99bd 6936 afbd 822b 09be 1102 a7bd
000003b0: f488 d0bc 6be3 d6bc d83b 41bc 2f75 3a3c
000003c0: 7e79 4f3d 3c37 843d 0f2b 94bb 2f67 18bd
000003d0: 860f 32bd e013 5839 f2f5 4fbc db0a 983c
000003e0: bec2 00bc 4e96 8fbc 59c0 3cbd b1d6 b7bc
000003f0: 14b7 90bd 23eb cfbd f0bd d5bd d21b 11be

network.0.bias f4 [128]
0.032304153 0.012961658 0.0234889 0.070755884 0.0044126245 0.05463797 -0.009689291 0.078142084
0.05610284 0.06134056 -0.020354152 0.05497944 -0.008036003 0.059781753 0.052725114 0.01759818
0.041418817 -0.022969155 0.07557521 0.04627036 0.112010285 -0.006432688 0.03595916 0.0519789
0.006855201 -0.052030545 -0.0064311456 0.028105346 0.051857036 0.07825802 0.015553163 -0.0007400721
0.030782437 0.028518142 -0.020460421 0.032932278 -0.05126292 -0.020156404 0.040745843 -0.04262609
0.034770604 0.01630381 -0.06855228 0.044062246 0.03981098 0.000577531 0.03551743 0.020130014
0.08249009 0.018921213 0.061568603 -0.0109516345 0.02212908 0.018715048 0.022273442 0.02180608
0.029671835 0.05263077 -0.0077848453 0.07567439 -0.037210867 0.021220282 0.004355205 0.035421252
-0.02117357 -0.0506449 0.077390894 0.028311178 -0.005373514 0.012674451 0.014154353 0.052605484
-0.03849642 0.04431875 0.047940496 0.03362424 0.07949449 0.021744775 0.0904459 0.065581225
0.09405241 0.04773404 0.07473737 0.07131799 0.012342878 -0.05699306 0.041007504 0.02881116
0.04443674 -0.06784689 0.03705063 -0.01338345 0.05199581 -0.04523518 -0.029385276 0.07031918
0.025811058 0.02604751 -0.0042860336 0.06463795 -0.0026230789 0.052465424 -0.038822718 -0.019681541
0.007965141 0.027464557 -0.0031592783 0.028593332 -0.04376109 0.08414013 0.0051912465 0.019389605
0.06555982 0.057171628 -0.0062249657 0.019608175 -0.024953127 0.03403459 0.06669275 0.04403703
-0.023302063 0.07781529 0.0041331747 -0.003404544 0.0071317046 0.036073804 -0.041911684 0.045576707
00000000: 5c51 043d 225d 543c cb6b c03c 76e8 903d
00000010: c797 903b 10cc 5f3d d5bf 1ebc f508 a03d
00000020: 17cc 653d 3d40 7b3d c0bd a6bc 1f32 613d
00000030: 71a9 03bc b6dd 743d 4af6 573d 0f2a 903c
00000040: c7a6 293d cf29 bcbc 2dc7 9a3d fd85 3d3d
00000050: a665 e53d 4cc9 d2bb ea49 133d d4e7 543d
00000060: 98a1 e03b fb1d 55bd 5cbc d2bb 2f3d e63c
00000070: 0b68 543d be45 a03d b2d2 7e3c 6601 42ba
00000080: 732b fc3c e19e e93c 9d9c a7bc ffe3 063d
00000090: 11f9 51bd 0b1f a5bc 1de5 263d b298 2ebd
000000a0: 9f6b 0e3d 918f 853c 2365 8cbd 9d7a 343d
000000b0: d710 233d 7365 173a ba7a 113d b3e7 a43c
000000c0: 90f0 a83d a900 9b3c 5c2f 7c3d 7c6e 33bc
000000d0: 0b48 b53c 4d50 993c cb76 b63c aaa2 b23c
000000e0: 5912 f33c 5d93 573d 0418 ffbb 2dfb 9a3d
000000f0: 6c6a 18bd 28d6 ad3c 1cb6 8e3b e015 113d
00000100: 3274 adbc 0771 4fbd 1e7f 9e3d d8ec e73c
00000110: 4d14 b0bb 80a8 4f3c a9e7 673c d978 573d
00000120: 6cae 1dbd 9487 353d 415d 443d 92b9 093d
00000130: 02ce a23d 1922 b23c b33b b93d 734f 863d
00000140: 8d9e c03d c584 433d e80f 993d 2b0f 923d
00000150: c839 4a3c 8e71 69bd 7cf7 273d 6205 ec3c
00000160: 4d03 363d 4ff3 8abd 67c2 173d 4246 5bbc
00000170: 8ff9 543d 8648 39bd 64b9 f0bc 8103 903d
00000180: b671 d33c 9661 d53c db71 8cbb e760 843d
00000190: f6e7 2bbb fce5 563d 9204 1fbd 2f3b a1bc
000001a0: 3980 023c 5afd e03c e50b 4fbb 903c ea3c
000001b0: d43e 33bd a951 ac3d 551b aa3b f3d6 9e3c
000001c0: 3a44 863d cc2c 6a3d ccfa cbbb 53a1 a03c
000001d0: 806a ccbc db67 0b3d 3596 883d 2c60 343d
000001e0: f8e3 bebc 9f5d 9f3d 956f 873b c51e 5fbb
000001f0: 13b1 e93b 20c2 133d 96ab 2bbd a4ae 3a3d

network.3.weight f4 [64, 128]
0.054628875 0.005207916 -0.015152003 0.06960043 -0.030400349 0.032622885 0.05202319 -0.011105801
0.1704775 0.030346612 -0.0028656034 -0.004345174 -0.03475178 -0.0028259186 0.095393434 -0.036969375
0.06551979 0.09165039 -0.06109056 0.18666235 0.06750248 0.1415693 0.08498512 0.16672982
0.014472918 -0.11862939 -0.015802274 -0.1202677 0.093153976 -0.026528206 -0.012723224 0.12031333
0.052308124 0.0713267 -0.14999142 0.060516324 -0.067943715 -0.048951305 0.014211004 -0.12553963
-0.07262479 0.018652385 -0.09690381 -0.032542057 -0.027219318 0.036746085 0.16962765 0.19534749
0.10504357 0.20537968 -0.07395571 -0.026204541 -0.048544783 0.107197724 0.13593243 -0.020867972
-0.041400652 -0.035829738 -0.068367936 -0.053436466 -0.008523109 -0.1019394 -0.046236575 -0.02928153
0.008584995 -0.052233737 0.001163329 0.048691776 0.013621214 0.0041137002 0.003044953 0.01284125
-0.111025386 0.11042867 -0.021657625 -0.06898948 0.07683914 0.025407083 0.037830845 -0.0012878058
0.1302644 -0.044399608 0.065058656 -0.07213023 -0.0056732274 0.050316945 0.16362825 0.14317599
0.106384955 -0.088553935 -0.010604817 -0.051882472 -0.013902305 -0.06620713 -0.025894124 0.042624187
0.07917629 0.01412503 -0.06294761 -0.032391 -0.10010195 0.07973711 0.14209351 -0.048277985
0.085179225 -0.012611405 -0.055127256 -0.08332426 -0.12916543 0.097406074 -0.020816602 -0.02602467
0.088636756 0.06393151 -0.039070886 -0.09016523 0.12605883 -0.00062815426 0.08632705 0.012831851
-0.05123298 0.09412764 0.13505737 -0.014931626 -0.07332644 0.020770589 -0.028107418 0.121203534
-0.14336833 -0.062915236 0.043447338 0.049010593 0.007976592 -0.016858833 0.08381991 0.047102723
0.04059886 0.101366095 -0.09105666 -0.038779326 -0.042595126 0.100506045 0.04878811 0.060928866
-0.04152704 -0.021183494 -0.11146592 0.02499811 -0.13838986 0.01898866 0.07643742 0.025786718
-0.052018885 0.0063720816 0.071239 -0.05181397 0.00044113083 -0.14426294 -0.09560959 -0.020237807
0.11832221 0.1409454 -0.0078632785 0.08615094 0.03842812 0.059249792 0.122564584 0.05639358
0.0032869976 -0.012353204 -0.038359977 0.009883923 -0.031553593 0.042875946 -0.0029336766 0.04529952
-0.050341234 -0.09970965 -0.057869487 0.083270125 0.010012552 -0.026644422 0.097207054 0.03727659
-0.16321857 -0.036693852 -0.12476683 0.07757956 0.06316925 0.13342026 0.006634866 -0.04285845
0.08140594 -0.089668036 0.041213043 0.012831513 0.08725141 -0.030568616 0.05390343 0.11373014
0.08069523 -0.025937032 -0.11358586 -0.060546454 0.039038144 0.12870464 -0.17835422 0.09216219
-0.06261131 -0.0324912 -0.0052788695 -0.14690231 0.0732233 -0.03861183 -0.10552693 0.01005991
0.124015145 -0.017091718 -0.0684629 -0.10057422 -0.040219463 0.058857113 -0.029756792 0.02941655
0.025314737 0.03135386 0.1763258 -0.0379576 -0.04825345 0.02769353 0.07991542 0.18157192
-0.08499001 -0.009878231 0.14113748 -0.04271675 -0.012116672 0.09584457 0.037737943 0.08773973
-0.03888284 -0.07552544 0.14419274 0.04087699 0.12659687 -0.054122057 0.036330502 0.0759276
-0.08875638 0.05815924 0.037357803 -0.0032385716 0.12086369 -0.14990936 0.033393323 -0.10634921
00000000: 87c2 5f3d 2aa7 aa3b 1b40 78bc ac8a 8e3d
00000010: 270a f9bc 939f 053d 4516 553d 1bf5 35bc
00000020: a791 2e3e 7599 f83c d9cc 3bbb f661 8ebb
00000030: e257 0ebd 0c33 39bb a25d c33d 336d 17bd
00000040: 3d2f 863d 33b3 bb3d 183a 7abd 6a24 3f3e
00000050: bd3e 8a3d 8bf7 103e ae0c ae3d 39bb 2a3e
00000060: d11f 6d3c f7f3 f2bd c573 81bc e94e f6bd
00000070: 83c7 be3d ae51 d9bc 1275 50bc d666 f63d
00000080: 0b41 563d bc13 923d 5a97 19be f7df 773d
00000090: 1326 8bbd 2a81 48bd 45d5 683c 768d 00be
000000a0: 4ebc 94bd e3cc 983c 8175 c6bd d24a 05bd
000000b0: 0cfb debc 1083 163d dfb2 2d3e 2c09 483e
000000c0: 1521 d73d 0d4f 523e 1776 97bd e8aa d6bc
000000d0: e5d6 46bd 7b8a db3d df31 0b3e 4ff3 aabc
000000e0: bb93 29bd 34c2 12bd 7d04 8cbd 32e0 5abd
000000f0: 83a4 0bbc 9bc5 d0bd 9062 3dbd d2df efbc
00000100: 14a8 0c3c 0bf3 55bd d87a 983a 0771 473d
00000110: 832b 5f3c 38cc 863b d68d 473b 1b64 523c
00000120: 4761 e3bd 6d28 e23d 556b b1bc 5b4a 8dbd
00000130: d75d 9d3d 8422 d03c 84f4 1a3d 98cb a8ba
00000140: 0864 053e 5ddc 35bd 793d 853d 04b9 93bd
00000150: 7be6 b9bb 2419 4e3d 2a8e 273e ba9c 123e
00000160: 5be0 d93d c45b b5bd d4bf 2dbc b782 54bd
00000170: 7ec6 63bc 9b97 87bd ea1f d4bc b396 2e3d
00000180: 2e27 a23d ab6c 673c adea 80bd 6dac 04bd
00000190: 4002 cdbd 364d a33d f680 113e 23bf 45bd
000001a0: 7272 ae3d 11a0 4ebc 1ecd 61bd e9a5 aabd
000001b0: f143 04be d67c c73d 9487 aabc b031 d5bc
000001c0: 3087 b53d 86ee 823d cb08 20bd 8ca8 b8bd
000001d0: 9115 013e b8aa 24ba 3dcc b03d af3c 523c
000001e0: acd9 51bd fec5 c03d 7b4c 0a3e c7a3 74bc
000001f0: 2c2c 96bd 1527 aa3c 8741 e6bc 8f39 f83d
00000200: 26cf 12be b4d9 80bd d6f5 313d 55bf 483d
00000210: 40b0 023c 891b 8abc c6a9 ab3d c9ee 403d
00000220: fd4a 263d 0799 cf3d ea7b babd 12d7 1ebd
00000230: 3a78 2ebd 1dd6 cd3d 0bd6 473d 8c90 793d
00000240: 4218 2abd 0289 adbc 3f48 e4bd d6c8 cc3c
00000250: 12b6 0dbe 1b8e 9b3c 398b 9c3d ab3e d33c
00000260: c111 55bd e5cc d03b c1e5 913d e33a 54bd
00000270: 9447 e739 aab9 13be f6ce c3bd c2c9 a5bc
00000280: ea52 f23d fe53 103e fbd4 00bc e76f b03d
00000290: ce66 1d3d e9af 723d 2403 fb3d f4fc 663d
000002a0: ab6a 573b 1865 4abc 5a1f 1dbd 2ef0 213c
000002b0: 573e 01bd b09e 2f3d ed42 40bb fd8b 393d
000002c0: 9c32 4ebd 9334 ccbd 8e08 6dbd 8789 aa3d
000002d0: b00b 243c 6745 dabc 7e14 c73d 56af 183d
000002e0: c522 27be 4b4c 16bd c085 ffbd 08e2 9e3d
000002f0: e15e 813d 529f 083e 4a69 d93b 588c 2fbd
00000300: 28b8 a63d e0a3 b7bd 02cf 283d 443b 523c
00000310: deb0 b23d 096b fabc d8c9 5c3d 59eb e83d
00000320: 8a43 a53d e679 d4bc b49f e8bd 8fff 77bd
00000330: 76e6 1f3d 26cb 033e 7da2 36be 88bf bc3d
00000340: 5c3a 80bd 7e15 05bd 5efa acbb 8f6d 16be
00000350: 19f6 953d 7027 1ebd 811e d8bd 52d2 243c
00000360: a7fb fd3d ee03 8cbc 4736 8cbd dbf9 cdbd
00000370: 2abd 24bd 2814 713d 84c4 f3bc fafa f03c
00000380: da60 cf3c e86c 003d c08e 343e 6e79 1bbd
00000390: 69a5 45bd 8bdd e23c b2aa a33d fded 393e
000003a0: 3e0f aebd 4ed8 21bc 5886 103e c2f7 2ebd
000003b0: 0185 46bc 284a c43d 1a93 1a3d e3b0 b33d
000003c0: 9d43 1fbd 15ad 9abd 43a7 133e a16e 273d
000003d0: 9ca2 013e 17af 5dbd 4bcf 143d ee7f 9b3d
000003e0: e8c5 b5bd 6238 6e3d 7f04 193d 373e 54bb
000003f0: 6287 f73d d781 19be 70c7 083d 9dcd d9bd

network.3.bias f4 [64]
0.012983067 0.07700797 0.104609296 0.09387383 0.064078584 0.08464621 -0.060450237 0.061592523
0.07720745 -0.046038046 0.064913 -0.017472485 -0.0284282 0.014163263 0.022733938 0.1493776
-6.0469945e-05 0.021486811 -0.029406069 -0.006834151 0.026417356 0.03076303 0.039975293 -0.05528397
0.0728733 0.07854177 -0.010882085 -0.038436256 0.13919349 0.0055359975 -0.00013146222 0.104844175
0.09720352 -0.04851446 0.060826473 -0.015953945 0.03304533 -0.00071060995 -0.06421105 0.022020914
0.10015535 0.024245622 0.022481915 0.011478671 0.039731495 0.056952294 0.053541645 -0.04280337
0.024933131 0.025080033 0.055592973 0.038404584 0.041385707 -0.059414264 -0.0024348525 -0.0657035
0.14373057 -0.058023807 -0.0062104133 0.10903114 0.12966336 -0.059802745 0.083990544 0.082100905
00000000: eeb6 543c 5bb6 9d3d 663d d63d ec40 c03d
00000010: a23b 833d fe5a ad3d ab9a 77bd 7148 7c3d
00000020: f11e 9e3d 6492 3cbd 1bf1 843d 7522 8fbc
00000030: 42e2 e8bc 080d 683c 863c ba3c 71f6 183e
00000040: 1ca1 7db8 1c05 b03c ffe4 f0bc 04f1 dfbb
00000050: 3669 d83c c002 fc3c 22bd 233d 7271 62bd
00000060: 993e 953d 82da a03d c64a 32bc 566f 1dbd
00000070: bd88 0e3e 5067 b53b 1fd9 09b9 8bb8 d63d
00000080: a412 c73d 19b7 46bd 2e25 793d d9b1 82bc
00000090: 8a5a 073d 3a48 3aba 1581 83bd 3465 b43c
000000a0: 401e cd3d c19e c63c fe2b b83c 0911 3c3c
000000b0: 7ebd 223d cf46 693d 7c4e 5b3d 9652 2fbd
000000c0: 9140 cc3c a474 cd3c 75b5 633d 204e 1d3d
000000d0: 0f84 293d 5f5c 73bd 0c92 1fbb 8e8f 86bd
000000e0: 1b2e 133e 5faa 6dbd b980 cbbb b84b df3d
000000f0: 79c6 043e b9f3 74bd 3c03 ac3d 8524 a83d

network.6.weight f4 [65, 64]
-0.029870017 0.10208845 -0.07102836 -0.12211318 0.11821599 -0.1694931 0.09078289 0.07396479
-0.00565108 0.08948953 0.11504847 -0.07815268 -0.16143806 0.085459545 -0.2213717 -0.06637582
-0.100923866 0.093010604 0.10155002 -0.17514414 0.12152696 0.10568323 0.095231675 -0.09294232
0.056767024 0.0048109097 0.09780748 -0.18308055 0.069192916 -0.10262151 -0.08094409 0.052459408
0.05441526 0.13056898 -0.019635359 0.09567203 0.03448262 0.07985119 -0.12361264 0.11469243
0.07935681 0.10159737 0.12605448 -0.12675746 -0.16417113 -0.012363654 0.113090195 0.044235926
-0.12005871 0.06918082 0.07712639 -0.040196147 0.108022384 -0.075689785 0.11974064 -0.06135868
0.0008485205 0.09939038 -0.14626671 -0.10318111 0.03895072 0.11183981 0.081824906 -0.19454193
0.12246834 -0.18520091 0.155413 -0.09359891 0.09211185 -0.3052012 0.12699386 0.11560057
0.16968812 -0.19124827 0.11003317 0.055651713 0.094270624 0.104182675 -0.24578023 0.123806156
0.07021604 0.07880931 -0.21839096 -0.17538947 0.14983399 0.11384708 -0.055907004 0.15359382
-0.1475937 -0.094664425 0.16526705 0.16700757 0.082387835 0.06790972 0.05965787 -0.22084817
-0.07235344 -0.046738155 0.13467619 -0.06342952 0.13371411 -0.23869073 -0.068813875 0.05713399
-0.21522224 -0.18324624 -0.119821094 -0.19770238 0.054929454 0.12532827 0.14723082 -0.1412161
-0.15279569 -0.07666165 0.017928766 -0.07024887 0.046298407 -0.031221487 0.16532238 -0.20126384
0.15330544 -0.16855858 0.029000914 0.13718618 0.13641073 -0.1100309 0.1490538 -0.20245847
-0.033601906 0.026456859 -0.18675965 0.032504864 0.139476 -0.080709204 0.11716595 0.09640125
0.066562176 0.108427875 0.008621227 -0.17629738 -0.010827685 0.02198032 -0.10798319 -0.15351163
0.14698899 -0.09862265 0.09669478 0.014510504 -0.07717062 -0.15496564 0.08407433 -0.16003759
0.07972504 0.102235 0.06735146 -0.09234514 -0.09313464 0.12370874 -0.15254591 -0.19316097
-0.11630084 0.08723178 0.010756984 -0.013729736 0.09122144 0.13508193 0.028334947 0.09780849
0.09126089 -0.0706073 -0.020224586 0.09803595 0.1380613 0.0022371965 0.027886724 0.11522022
0.07389017 0.086368665 -0.03223144 0.019003326 0.11785425 0.03053969 0.08404265 0.10639588
0.093620285 0.021972122 -0.04622895 0.09757006 -0.21525836 0.118977994 -0.06296806 -0.045027792
0.16130295 0.03296968 -0.108653136 0.13552319 0.022573713 -0.1855297 -0.03209674 0.11682894
-0.09979663 -0.074647285 0.081462406 0.060443904 -0.032329198 -0.13825239 -0.11857579 0.09788627
0.0486486 0.11029688 0.11779198 -0.19749993 0.14501569 0.13072795 -0.07744922 0.043306526
0.0739231 0.013487934 -0.044060998 -0.035538685 -0.09366926 0.011356259 0.1416009 -0.22029243
-0.03836882 0.024737231 0.13182461 0.13936257 0.04159059 -0.11337118 0.099267446 0.11419926
-0.1419436 0.113912426 0.07842467 -0.15130146 -0.06334224 0.104235366 -0.040382598 0.08411691
-0.029711735 0.08894673 0.08422477 0.103989996 0.010283435 -0.079524964 0.092896 -0.014443593
0.14716683 -0.11692644 -0.056077216 0.086500846 0.11044205 -0.051142618 0.12910804 -0.08639949
00000000: f7b1 f4bc c013 d13d 5177 91bd 7a16 fabd
00000010: 3a1b f23d 998f 2dbe 61ec b93d da7a 973d
00000020: b22c b9bb 4946 b73d 889e eb3d 830e a0bd
00000030: 0550 25be 6a05 af3d 43af 62be 0cf0 87bd
00000040: 2cb1 cebd 587c be3d 75f9 cf3d fc58 33be
00000050: 20e3 f83d 7370 d83d d308 c33d 8b58 bebd
00000060: 8a84 683d d6a4 9d3b 4a4f c83d 7879 3bbe
00000070: 04b5 8d3d 3a2b d2bd 04c6 a5bd addf 563d
00000080: 89e2 5e3d e0b3 053e 55da a0bc b2ef c33d
00000090: a63d 0d3d 0589 a33d a028 fdbd dde3 ea3d
000000a0: d385 a23d 4812 d03d 6d14 013e b5cc 01be
000000b0: 7a1c 28be ec90 4abc d59b e73d bb30 353d
000000c0: 57e1 f5bd acae 8d3d 71f4 9d3d b7a4 24bd
000000d0: d73a dd3d 3f03 9bbd 953a f53d 3d53 7bbd
000000e0: 3f6f 5e3a 2f8d cb3d f1c6 15be 9e50 d3bd
000000f0: ca8a 1f3d 450c e53d d193 a73d 0036 47be
00000100: aed0 fa3d 4fa5 3dbe 9624 1f3e c9b0 bfbd
00000110: 23a5 bc3d 5543 9cbe ae0a 023e febf ec3d
00000120: b9c2 2d3e 96d6 43be 1259 e13d 0df3 633d
00000130: f510 c13d ba5d d53d d0ad 7bbe 158e fd3d
00000140: 6dcd 8f3d c766 a13d e1a1 5fbe 4c99 33be
00000150: 156e 193e a828 e93d befe 64bd b347 1d3e
00000160: ce22 17be 6cdf c1bd c43b 293e 0804 2b3e
00000170: f4ba a83d 4014 8b3d d05b 743d 0626 62be
00000180: 0a2e 94bd 8270 3fbd 8ee8 093e 56e7 81bd
00000190: 5aec 083e 586b 74be 4aee 8cbd 5505 6a3d
000001a0: 3863 5cbe e7a4 3bbe c364 f5bd 7e72 4abe
000001b0: b5fd 603d 0e56 003e adc3 163e f49a 10be
000001c0: 7976 1cbe c800 9dbd 59df 923c a4de 8fbd
000001d0: 66a3 3d3d 34c4 ffbc 454a 293e 1c18 4ebe
000001e0: 1afc 1c3e 9f9a 2cbe 5393 ed3c 897a 0c3e
000001f0: 41af 0b3e e157 e1bd 8fa1 183e 4651 4fbe
00000200: 27a2 09bd 0ebc d83c ec3d 3fbe d223 053d
00000210: ccd2 0e3e de4a a5bd b4f4 ef3d 056e c53d
00000220: c051 883d 6f0f de3d 0c40 0d3c 4d87 34be
00000230: 9a66 31bc 1210 b43c 4a26 ddbd 2732 1dbe
00000240: 4884 163e acfa c9bd ea07 c63d 77bd 6d3c
00000250: a10b 9ebd 50af 1ebe 2a2f ac3d e5e0 23be
00000260: e246 a33d 9560 d13d 90ef 893d 731f bdbd
00000270: 60bd bebd 025b fd3d ff34 1cbe fdcb 45be
00000280: 232f eebd 93a6 b23d 103e 303c b0f2 60bc
00000290: 4ed2 ba3d eb52 0a3e b11e e83c d14f c83d
000002a0: fde6 ba3d 8f9a 90bd 08ae a5bc 12c7 c83d
000002b0: f15f 0d3e ee9d 123b b372 e43c 94f8 eb3d
000002c0: bb53 973d 0ee2 b03d 1d05 04bd ddac 9b3c
000002d0: 925d f13d 5f2e fa3c 8e1e ac3d 15e6 d93d
000002e0: febb bf3d e1fe b33c 915a 3dbd d0d2 c73d
000002f0: b06c 5cbe bcaa f33d 66f5 80bd 106f 38bd
00000300: 9a2c 253e 370b 073d 8985 debd 97c6 0a3e
00000310: 82ec b83c 7ffb 3dbe df77 03bd 0344 ef3d
00000320: 2d62 ccbd ade0 98bd c3d5 a63d 0794 773d
00000330: 9f6b 04bd 0992 0dbe ddd7 f2bd 9978 c83d
00000340: c143 473d 55e3 e13d ec3c f13d 6c3d 4abe
00000350: fe7e 143e 8cdd 053e b29d 9ebd 2f62 313d
00000360: ff64 973d 7ffc 5c3c 4e79 34bd 0391 11bd
00000370: abd5 bfbd 9a0f 3a3c d4ff 103e 5794 61be
00000380: a028 1dbd bca5 ca3c 08fd 063e 10b5 0e3e
00000390: e55a 2a3d 262f e8bd bb4c cb3d 4de1 e93d
000003a0: aa59 11be eb4a e93d 1d9d a03d c5ee 1abe
000003b0: 94b9 81bd 5a79 d53d 3968 25bd 7d45 ac3d
000003c0: 0666 f3bc b429 b63d 097e ac3d b5f8 d43d
000003d0: da7b 283c fcdd a2bd 4240 be3d d2a4 6cbc
000003e0: e7b2 163e 2177 efbd 39b1 65bd 5b27 b13d
000003f0: 712f e23d ec7a 51bd e634 043e 37f2 b0bd

network.6.bias f4 [65]
0.1512863 -0.038021106 0.102808915 0.045995977 0.073925585 0.1662756 0.078403875 0.100232005
-0.03250349 -0.05981209 0.017255953 -0.14185874 -0.16283867 -0.17006718 -0.05313915 -0.0569211
-0.065809 -0.10163026 -0.09358954 -0.04187253 -0.026122151 -0.11954955 -0.23205797 -0.1850211
0.006115005 -0.16495362 0.018667104 -0.17099068 -0.18832877 -0.15207478 -0.14466767 -0.05930356
-0.101805024 -0.00011097751 -0.2014304 -0.032419305 -0.06224277 0.0027220226 -0.009039035 -0.15978289
-0.19393042 -0.040607408 -0.07023085 -0.110305905 -0.20974682 -0.0046654423 -0.036159102 -0.005775275
-0.09623448 0.012384408 -0.20749255 -0.10919269 -0.10937648 -0.05584917 -0.09381118 0.020476345
-0.10080993 -0.020286666 -0.0036458708 -0.1094157 -0.21355988 -0.14099514 0.021385346 -0.11714009
-0.07881351
00000000: ccea 1a3e 05bc 1bbd 7b8d d23d 4766 3c3d
00000010: 4c66 973d 2744 2a3e 3692 a03d 7046 cd3d
00000020: 6122 05bd 86fd 74bd 5b5c 8d3c 6b43 11be
00000030: 2ebf 26be 1726 2ebe 70a8 59bd 1926 69bd
00000040: dec6 86bd 8723 d0bd dfab bfbd 8882 2bbd
00000050: 1ffe d5bc 65d6 f4bd 9ba0 6dbe 2c76 3dbe
00000060: 6160 c83b 9ae9 28be c1eb 983c 2e18 2fbe
00000070: 42d9 40be 7eb9 1bbe c323 14be 4ae8 72bd
00000080: 277f d0bd 99bc e8b8 c543 4ebe 1bca 04bd
00000090: 46f2 7ebd f663 323b 7618 14bc 209e 23be
000000a0: b295 46be f453 26bd 31d5 8fbd 10e8 e1bd
000000b0: dfc7 56be 91e0 98bb 911b 14bd 853e bdbb
000000c0: 9516 c5bd f9e7 4a3c ed78 54be 6ba0 dfbd
000000d0: c700 e0bd 19c2 64bd 1320 c0bd 02be a73c
000000e0: 7075 cebd 3930 a6bc 90ef 6ebb 5715 e0bd
000000f0: 71af 5abe 0861 10be 5230 af3c 25e7 efbd
00000100: fa68 a1bd
