A1/MLP Classification on Image Features/best_raw_model.pth (torch, 454734 bytes, 6 tensors)

network.0.weight f4 [128, 784]
0.004045441 -0.011193418 0.0011916746 -0.01581717 -0.04807144 -0.04389671 -0.039552223 -0.048913874
-0.034966934 -0.032304414 0.05292502 0.1330299 0.048770677 0.07002008 0.033033364 0.06252172
0.1593415 0.12661344 0.04713627 -0.041987516 -0.005719141 -0.012607706 -0.04775317 -0.03417027
-0.020305255 -0.04218996 0.020348942 -0.01200819 -0.012197631 0.03318379 -0.03814276 -0.036913496
-0.0067057637 -0.019331599 -0.092464745 -0.07051623 -0.033660375 0.021015743 0.07441192 0.10056687
0.09832467 0.1265792 0.09635824 0.06371521 0.044314895 0.08747751 0.0784143 0.04485732
-0.020328306 -0.06734075 -0.049364198 -0.05621811 -0.06579698 -0.011715656 0.0024897384 0.012488412
-0.034929864 -0.023466403 -0.005429771 -0.0439693 -0.043385826 -0.021079848 -0.039516944 0.009712657
-0.021704823 0.013757538 0.030000435 -0.017332679 -0.017087938 0.047523104 0.018829275 0.053341266
0.033141565 0.0029687204 0.019178892 -0.026406355 -0.043206837 -0.019452019 -0.002333669 -0.08466527
-0.031272106 -0.024210153 -0.017009886 0.017895032 -0.031544153 -0.047037408 0.00042460943 -0.020926142
-0.0034187254 0.027183179 -0.06587439 -0.06101382 -0.030590631 0.018708052 0.0014580095 -0.009939342
0.007237839 0.023230601 0.048287366 0.012039121 0.03154775 -0.010559966 -0.019572783 -0.0755093
-0.09263926 -0.04106436 -0.034286745 -0.03499425 -0.04818919 -0.046025645 -0.021479346 -0.011477433
-0.014019458 -0.006476028 -0.0032890118 -0.0040202285 -0.017083462 0.01021066 -0.07983456 -0.05020323
-0.018359222 0.03578786 0.05878963 0.018554194 0.037080538 0.036952112 -0.008881849 -0.017236136
0.007837384 -0.023872303 -0.018655673 0.013253663 -0.03578991 -0.054316938 -0.015482527 -0.020480745
-0.04965234 -0.014127371 -0.007429873 -0.009915451 0.0051307133 0.01818306 -0.0051827626 -0.038691096
0.042487998 0.010541698 -0.022406267 -0.030345257 0.01393218 0.0067720027 0.020286517 0.04413259
-0.008413033 0.021300752 -0.0016514141 -0.015608261 0.015199592 -0.014811409 -0.027065603 -0.008228394
-0.063607685 -0.08932599 -0.054068636 0.014505044 -0.0042294837 -0.021719618 -0.010455152 0.028405253
-0.007061 -0.009959726 -0.00921215 0.0045575276 0.047495313 -0.009300034 -0.0015966397 -0.01006093
0.018240968 0.031882145 0.043653596 0.041493952 0.019582693 0.017684152 -0.017262705 -0.0011132362
0.0007940033 0.033471305 -0.006607255 -0.0370125 -0.0534074 -0.004118845 -0.02585178 -0.015098652
-0.008722199 -0.025508592 0.018780084 0.024824264 0.006725807 -0.010043602 0.020843392 0.049978714
0.03889474 -0.03934612 -0.013866273 -0.016643727 0.013794272 0.048629038 0.048800178 0.008146308
-0.004776826 0.035418957 -0.004563231 0.02014772 0.04342248 -0.0062725744 -0.022125807 -0.028535914
-0.037243206 -0.02951015 -0.05918157 -0.034354486 -0.00262997 0.04321217 -0.023314418 0.04521892
0.030976761 -0.008437754 0.025708051 0.055651717 0.017754927 0.026759231 0.02699898 0.019823775
-0.024905402 0.049383085 0.036005575 0.043500386 0.027235765 0.027229996 0.016149588 -0.008633011
-0.030000048 0.025220878 0.0015655741 -0.004755441 -0.040874988 -0.034617003 -0.006509295 -0.024018984
-0.003255434 -0.026670419 -0.0053992593 0.019392392 -0.0045824163 0.037227303 0.0030806332 0.073994786
00000000: 9e8f 843b 9964 37bc f731 9c3a 0293 81bc
00000010: 8fe6 44bd 09cd 33bd 8301 22bd ea59 48bd
00000020: 7d39 0fbd a251 04bd e8c7 583d fd38 083e
00000030: c3c3 473d b066 8f3d fe4d 073d 630b 803d
00000040: 6b2a 233e f4a6 013e f611 413d 1afb 2bbd
00000050: a267 bbbb 8d90 4ebc d498 43bd 20f6 0bbd
00000060: 3557 a6bc 61cf 2cbd d3b2 a63c 00be 44bc
00000070: 93d8 47bc baeb 073d 953b 1cbd 9b32 17bd
00000080: 06bc dbbb 4d5d 9ebc 285e bdbd d06a 90bd
00000090: 76df 09bd 3529 ac3c 4765 983d 01f6 cd3d
000000a0: 725e c93d fa9d 013e 7857 c53d 1f7d 823d
000000b0: 8983 353d 6927 b33d ad97 a03d 4fbc 373d
000000c0: 8c87 a6bc f2e9 89bd 1d32 4abd f644 66bd
000000d0: 91c0 86bd 06f3 3fbc e12a 233b 329c 4c3c
000000e0: 9e12 0fbd 9d3c c0bc 38ec b1bb 2719 34bd
000000f0: 56b5 31bd a5af acbc 85dc 21bd d621 1f3c
00000100: 50ce b1bc 4c67 613c 79c3 f53c 43fd 8dbc
00000110: 01fc 8bbc 96a7 423d da3f 9a3c 5f7c 5a3d
00000120: 73bf 073d dd8e 423b 0d1d 9d3c 2452 d8bc
00000130: a7f9 30bd d759 9fbc 78f0 18bb fc64 adbd
00000140: 2e17 00bd 5f54 c6bc 5158 8bbc 9a98 923c
00000150: 7134 01bd 4caa 40bd 1d9e de39 4d6d abbc
00000160: b20c 60bb 42af de3c 27e9 86bd a1e9 79bd
00000170: 3499 fabc a141 993c ae1a bf3a 9fd8 22bc
00000180: 652b ed3b 1a4e be3c f9c8 453d bc3f 453c
00000190: 3738 013d b503 2dbc 1a57 a0bc 9fa4 9abd
000001a0: a7b9 bdbd 1a33 28bd 4270 0cbd 2156 0fbd
000001b0: 0762 45bd 6385 3cbd 74f5 afbc d80b 3cbc
000001c0: deb1 65bc dc34 d4bb 768c 57bb 1fbc 83bb
000001d0: 9ef2 8bbc 9d4a 273c 4d80 a3bd e7a1 4dbd
000001e0: 1466 96bc 4b96 123d 65cd 703d f7fe 973c
000001f0: c3e1 173d 195b 173d 2d85 11bc cc32 8dbc
00000200: 5f68 003c d98f c3bc c8d3 98bc e425 593c
00000210: 7198 12bd 707b 5ebd 6daa 7dbc 3cc7 a7bc
00000220: 4160 4bbd 7d76 67bc 4b76 f3bb 6a74 22bc
00000230: 8b1f a83b a4f4 943c 2ad4 a9bb 8e7a 1ebd
00000240: e507 2e3d 16b7 2c3c 598d b7bc 9e96 f8bc
00000250: cc43 643c ade7 dd3b e92f a63c 60c4 343d
00000260: d1d6 09bc ea7e ae3c 4374 d8ba cbb9 7fbc
00000270: b607 793c 8dab 72bc afb8 ddbc 63d0 06bc
00000280: bf44 82bd 8bf0 b6bd 1377 5dbd 90a6 6d3c
00000290: 7b97 8abb 57ed b1bc 164c 2bbc 22b2 e83c
000002a0: f65f e7bb 1e2e 23bc 8fee 16bc 5057 953b
000002b0: 728a 423d 2b5f 18bc 5746 d1ba 99d6 24bc
000002c0: 156e 953c da96 023d 1dce 323d 90f5 293d
000002d0: e26b a03c 5bde 903c 846a 8dbc 02ea 91ba
000002e0: a924 503a 3519 093d ac81 d8bb 6b9a 17bd
000002f0: b8c1 5abd 60f7 86bb 1dc7 d3bc 5660 77bc
00000300: 8ee7 0ebc 65f7 d0bc b1d8 993c 415c cb3c
00000310: 2964 dc3b ec8d 24bc c3bf aa3c 7bb6 4c3d
00000320: 1750 1f3d 6629 21bd 5d2f 63bc 6d58 88bc
00000330: 5f01 623c 3e2f 473d b2e2 473d 1878 053c
00000340: ec86 9cbb 7813 113d 2887 95bb d50c a53c
00000350: c5db 313d 2b8a cdbb 2e41 b5bc 26c4 e9bc
00000360: 558c 18bd 45bf f1bc 6068 72bd 4ab7 0cbd
00000370: 935b 2cbb 3fff 303d e1fd bebc 7937 393d
00000380: fac2 fd3c 813e 0abc b199 d23c 0ef3 633d
00000390: c872 913c 2d36 db3c f72c dd3c 7865 a23c
000003a0: 6a06 ccbc eb45 4a3d 957a 133d 762d 323d
000003b0: 8a1d df3c 7111 df3c 244c 843c 7971 0dbc
000003c0: a9c2 f5bc 049c ce3c f333 cd3a 88d3 9bbb
000003d0: 886c 27bd 8fca 0dbd ed4b d5bb 76c3 c4bc
000003e0: 1f59 55bb ec7b dabc 45ec b0bb cbdc 9e3c
000003f0: 1828 96bb a87b 183d 73e4 493b 948a 973d

network.0.bias f4 [128]
0.06769315 0.0902975 0.05292678 0.10343893 0.0014752205 0.07482208 0.019758657 0.18169877
0.09607719 0.106968336 0.011094252 -0.051922686 0.030309064 0.13357477 0.082991324 0.030838192
0.001593968 -0.01627885 0.044265445 0.1323475 0.1339682 0.24831137 0.037918758 0.04866809
0.03851332 0.14554007 0.15467995 0.007847908 -0.0066774413 0.062805034 0.14794157 0.1729022
0.20300746 0.251714 0.11260339 0.029836219 -0.07055561 0.015190286 0.24618085 0.008681205
0.12828407 0.08442325 0.038468227 0.19016393 0.116976544 -0.02398195 0.13761818 0.040607017
0.06409834 0.02785695 0.073504984 0.046445355 0.0049041947 -0.03557177 0.0023455704 0.01818155
0.005437133 0.031208009 -0.06113634 -0.02953158 0.09304852 0.05501608 0.087369576 0.016241144
0.22750819 0.16288523 0.12800857 0.06873271 0.15011981 0.067551225 0.13320987 -0.022429347
0.14018592 0.12356615 0.02020536 0.18267457 -0.030133836 0.10634906 0.121765554 -0.081604995
-0.0040177694 0.022210255 0.09200694 0.11430808 -0.0081236875 0.17635387 0.041389823 0.1468659
0.085032396 0.089901984 -0.058748554 0.018197795 0.11065476 0.10766105 0.05648406 -0.036983777
0.06729342 0.17074773 -0.011915019 0.0562097 0.22234035 0.12503906 0.2326017 0.11896767
0.00029912178 0.15986124 0.008984133 0.051245667 0.06444683 0.11283662 -0.047212936 0.13499738
0.06675096 0.22578554 0.0013437885 0.037572533 0.0053858715 0.033466864 -0.0422516 0.102823354
0.08746261 -0.10464154 0.03763744 0.11319543 0.16176385 -0.079924755 0.036348604 0.051219013
00000000: b5a2 8a3d e5ed b83d c0c9 583d cad7 d33d
00000010: 305c c13a 523c 993d e8dc a13c 3e0f 3a3e
00000020: 1ec4 c43d 3712 db3d aac4 353c e2ac 54bd
00000030: b74a f83c d3c7 083e 5bf7 a93d 60a0 fc3c
00000040: b1ec d03a 395b 85bc af4f 353d 1a86 073e
00000050: f62e 093e 5645 7e3e b350 1b3d 3158 473d
00000060: 25c0 1d3d 7508 153e 6c64 1e3e 8394 003c
00000070: 70ce dabb ed9f 803d ff7d 173e 460d 313e
00000080: 30e1 4f3e a8e0 803e 9b9c e63d 166b f43c
00000090: 767f 90bd ade0 783c d516 7c3e 9d3b 0e3c
000000a0: e65c 033e 19e6 ac3d dc90 1d3d 55ba 423e
000000b0: 6691 ef3d cb75 c4bc c8eb 0c3e 8b53 263d
000000c0: fe45 833d 4234 e43c c889 963d 7c3d 3e3d
000000d0: 5eb3 a03b b4b3 11bd 24b8 193b 79f1 943c
000000e0: fa29 b23b f0a7 ff3c 196a 7abd 36ec f1bc
000000f0: 3990 be3d 8b58 613d d2ee b23d 260c 853c
00000100: e8f7 683e 63cb 263e ae14 033e bcc3 8c3d
00000110: 02b9 193e 4c58 8a3d 2b68 083e c0bd b7bc
00000120: e68c 0f3e 4010 fd3d b685 a53c 0b0f 3b3e
00000130: 3cdb f6bc 89cd d93d 3860 f93d 8520 a7bd
00000140: 7ea7 83bb 48f2 b53c 226e bc3d 5b1a ea3d
00000150: 3719 05bc 1c96 343e 6088 293d 0464 163e
00000160: 7725 ae3d 881e b83d 53a2 70bd 8b13 953c
00000170: f69e e23d 667d dc3d d45b 673d 4d7c 17bd
00000180: 22d1 893d 7ed8 2e3e 3637 43bc 243c 663d
00000190: 30ad 633e 3d0a 003e 242f 6e3e 52a5 f33d
000001a0: 72d3 9c39 aab2 233e 2f32 133c fae6 513d
000001b0: b3fc 833d e316 e73d 5a62 41bd c13c 0a3e
000001c0: bab4 883d 5334 673e 0f22 b03a a8e5 193d
000001d0: f77b b03b 8d14 093d 0410 2dbd 0d95 d23d
000001e0: 991f b33d 4e4e d6bd b729 1a3d 01d3 e73d
000001f0: 6ca5 253e 97af a3bd 46e2 143d 07cb 513d

network.3.weight f4 [64, 128]
-0.012530894 0.027538497 0.030865738 0.07389582 -0.07452193 0.025225028 0.03894405 0.2655097
-0.019209938 0.074040614 -0.0031897558 0.10499324 -0.12744172 0.09996515 -0.05374167 -0.07669771
0.060056526 -0.014651099 0.06969289 -0.023003018 -0.021108326 0.06375052 0.011140206 0.07734344
-0.04089132 0.10134826 -0.011530803 0.038290996 -0.037445452 0.14796904 0.0023938115 -0.025766531
0.15686765 0.16084589 0.05922855 -0.04274317 0.092460215 0.055842295 0.14004993 -0.029898865
-0.042576894 0.14717558 0.085268356 0.008787555 0.06280295 0.026119737 0.14366308 -0.024677666
0.01434759 -0.038753897 0.06439091 -0.08460252 0.03471626 0.086479835 0.048728354 0.12248803
0.06748643 -0.0657779 -0.040822398 0.027519934 -0.108513474 -0.026956262 0.062005527 -0.00563346
0.23771328 0.13778187 0.12609342 0.08685127 0.018832892 -0.03424127 0.039390653 0.1609384
0.12916633 0.09876272 0.11639734 0.097538374 -0.016543519 0.061869375 -0.052522168 -0.049890257
-0.029034507 0.05752899 0.116171844 -0.04442841 0.1657712 0.22604695 -0.07780298 0.014690092
0.031499952 0.05655992 -0.026026474 0.03740662 0.083804466 -0.031258345 0.082777075 0.09772933
0.004703274 0.017002195 -0.0046599573 -0.060424674 0.10767712 -0.043681007 0.19851507 0.03180303
0.1573101 0.02072931 0.1491621 -0.07682829 0.031820282 -0.00028739014 -0.011347488 0.067874745
0.0012282629 0.12793839 -0.093665935 -0.06097269 0.14608201 -0.07328181 0.10448827 0.083792746
0.08770958 -0.00095903536 -0.055513177 -0.0021910616 0.01656041 -0.033678073 0.037993923 -0.057072967
0.057173558 8.662742e-05 0.08305873 0.12500067 0.012049732 -0.102976084 0.039549977 -0.033497762
-0.026707754 0.103342324 -0.02904355 -0.0050248876 0.09309535 -0.067962326 0.0936671 0.04526302
-0.00064159645 0.04941237 -0.094282925 0.10419565 -0.040847134 0.028555175 0.046330635 -0.15496047
-0.011020155 0.09630707 0.14406386 0.055920012 -0.09783175 -0.058470882 0.02410972 0.10366298
0.008256532 -0.072743855 -0.02422727 0.13107584 -0.14053127 0.08646686 -0.124997295 -0.01484206
0.016639039 0.06690889 0.043017145 -0.05263215 0.08646081 -0.05250132 -0.08134224 -0.01255536
0.054834913 -0.10933468 -0.008726828 0.12429206 -0.08830954 -0.004632262 -0.053150658 0.03367686
0.055909384 0.0121851545 -0.06987424 0.15624365 -0.062101725 0.09165266 0.013186308 0.041578755
-0.055195145 -0.039808556 0.100306086 -0.005831426 0.05986724 0.061915755 0.02884454 -0.022981267
0.026077844 -0.068804264 -0.15926774 0.07057909 -0.01693369 0.014949703 0.07016705 0.11792999
0.06246334 0.047523536 -0.075590044 0.102601975 -0.049704436 -0.05067245 -0.017390579 -0.11125105
0.07054394 -0.111058146 0.05690851 0.07712794 -0.15701552 0.036532443 0.12333314 0.056639742
0.11601372 0.07173954 0.13662365 -0.09473574 -0.05359032 -0.044298116 0.009342213 0.12091021
0.014207001 -0.04176181 -0.04858987 -0.1723481 0.062448673 0.020350218 -0.08122531 0.07339171
-0.026295407 -0.059778657 0.06358694 0.12781991 -0.072683066 -0.03498362 0.0747373 -0.06442496
0.08952031 -0.035192497 -0.07596018 -0.015126366 0.08650248 0.09539556 0.055545833 0.028042106
00000000: 614e 4dbc 6a98 e13c 25da fc3c b156 973d
00000010: f49e 98bd b8a4 ce3c cc83 1f3d e3f0 873e
00000020: 295e 9dbc 9ba2 973d 390b 51bb b206 d73d
00000030: 1580 02be 87ba cc3d 3a20 5cbd b013 9dbd
00000040: d5fd 753d 2a0b 70bc 25bb 8e3d d370 bcbc
00000050: 5eeb acbc a28f 823d 6985 363c 3d66 9e3d
00000060: a87d 27bd ad8f cf3d b1eb 3cbc 05d7 1c3d
00000070: 6760 19bd 3285 173e 7ee1 1c3b 5514 d3bc
00000080: eaa1 203e c9b4 243e a399 723d 7613 2fbd
00000090: c85b bd3d e4ba 643d 4069 0f3e 77ee f4bc
000000a0: 1c65 2ebd 32b5 163e 2da1 ae3d adf9 0f3c
000000b0: d59e 803d 0ff9 d53c 6a1c 133e d128 cabc
000000c0: 2712 6b3c 68bc 1ebd 62df 833d 1644 adbd
000000d0: a332 0e3d 571c b13d 6297 473d 01db fa3d
000000e0: 5336 8a3d 90b6 86bd 6335 27bd 7c71 e13c
000000f0: 503c debd 61d3 dcbc 82f9 7d3d e398 b8bb
00000100: 1c6b 733e b116 0d3e a21e 013e 14df b13d
00000110: 7047 9a3c 9340 0cbd 1858 213d 09cd 243e
00000120: 2e44 043e 1c44 ca3d bb61 ee3d 33c2 c73d
00000130: 4686 87bc be6a 7d3d 7c21 57bd ba59 4cbd
00000140: c6d9 edbc 85a3 6b3d 81eb ed3d 90fa 35bd
00000150: edbf 293e da78 673e 2b57 9fbd b6ae 703c
00000160: 1806 013d 60ab 673d 7935 d5bc af37 193d
00000170: ada1 ab3d c008 00bd 0787 a93d 5126 c83d
00000180: ec1d 9a3b 3048 8b3c 8eb2 98bb dd7f 77bd
00000190: d285 dc3d dbea 32bd 8947 4b3e e543 023d
000001a0: e615 213e 84d0 a93c f3bd 183e 2758 9dbd
000001b0: fc55 023d daac 96b9 d0ea 39bc ea01 8b3d
000001c0: aafd a03a 4802 033e edd3 bfbd 80be 79bd
000001d0: 8696 153e c614 96bd f2fd d53d 889b ab3d
000001e0: 15a1 b33d c667 7bba c961 63bd ea97 0fbb
000001f0: b2a9 873c 05f2 09bd 849f 1b3d 58c5 69bd
00000200: d22e 6a3d beab b538 b21a aa3d 2d00 003e
00000210: 3d6c 453c 20e5 d2bd 28ff 213d f334 09bd
00000220: 38ca dabc 24a5 d33d bdec edbc d0a7 a4bb
00000230: c6a8 be3d d52f 8bbd 89d4 bf3d b765 393d
00000240: cf30 28ba a064 4a3d 6817 c1bd 8764 d53d
00000250: 534f 27bd 8bec e93c 31c5 3d3d f5ad 1ebe
00000260: e18d 34bc a43c c53d 7a85 133e 620c 653d
00000270: 035c c8bd 2a7f 6fbd bf81 c53c 424d d43d
00000280: 6846 073c bbfa 94bd 4578 c6bc bf38 063e
00000290: 6ee7 0fbe 8915 b13d 95fe ffbd 1d2c 73bc
000002a0: 984e 883c 8707 893d bf32 303d cf94 57bd
000002b0: 5d12 b13d a00b 57bd c396 a6bd ffb4 4dbc
000002c0: 939a 603d dcea dfbd f8fa 0ebc d68c fe3d
000002d0: a2db b4bd 3bca 97bb 81b4 59bd bff0 093d
000002e0: 3d01 653d 3ea4 473c 3a1a 8fbd 56fe 1f3e
000002f0: 615e 7ebd 64b4 bb3d 620b 583c 7c4e 2a3d
00000300: 4e14 62bd 4c0e 23bd 476d cd3d 8c15 bfbb
00000310: 5a37 753d 609b 7d3d 624b ec3c 3643 bcbc
00000320: 34a1 d53c 40e9 8cbd 1517 23be c58b 903d
00000330: 86b8 8abc 99ef 743c beb3 8f3d 4785 f13d
00000340: 8fd9 7f3d 0aa8 423d f4ce 9abd fc20 d23d
00000350: e196 4bbd ea8d 4fbd b076 8ebc 97d7 e3bd
00000360: 5779 903d 7472 e3bd e618 693d 41f5 9d3d
00000370: adc8 20be 0ba3 153d 1696 fc3d 13ff 673d
00000380: 9a98 ed3d 2eec 923d 12e7 0b3e d004 c2bd
00000390: 8681 5bbd f171 35bd 1510 193c c69f f73d
000003a0: 7bc4 683c 6f0e 2bbd 2c06 47bd 057c 30be
000003b0: 2eca 7f3d 80b5 a63c 7559 a6bd 654e 963d
000003c0: 7769 d7bc 77da 74bd df39 823d 39e3 023e
000003d0: dcda 94bd fc4a 0fbd df0f 993d 3cf1 83bd
000003e0: 6d56 b73d 0226 10bd 0391 9bbd 94d4 77bc
000003f0: 3628 b13d bf5e c33d 0784 633d 8fb8 e53c

network.3.bias f4 [64]
0.13274482 0.098513104 0.004044776 -0.0069343867 0.13878682 0.21095903 0.22404929 0.14832084
0.022201829 0.014040886 0.11485523 0.1800071 0.02724404 -0.095408134 -0.0019756095 0.1244735
0.17476368 0.113048285 0.09589575 0.13446674 0.06581548 0.122341655 0.09212965 -0.083697475
0.026885962 -0.08261293 -0.11017591 0.0025431237 0.0737816 0.08651625 0.21448673 0.13733639
0.101662554 0.17178717 0.13569541 0.008864843 0.2252561 0.09817457 0.105151206 0.1858804
-0.031652957 0.19251238 -0.050469175 0.1167065 -0.10842361 -0.045777924 0.0964419 -0.07383242
0.033112925 0.11880704 0.10638238 0.056773365 0.013257961 0.08496108 0.15846506 0.21065743
0.06151663 0.19743158 0.16148902 0.10075127 0.12155869 0.07241756 0.06597662 0.011831593
00000000: 42ee 073e 3dc1 c93d 0a8a 843b da39 e3bb
00000010: 221e 0e3e a505 583e 2d6d 653e 6be1 173e
00000020: 9ce0 b53c bf0b 663c 3839 eb3d c853 383e
00000030: e52e df3c 5765 c3bd 3a79 01bb f6eb fe3d
00000040: 40f5 323e dc85 e73d fe64 c43d a6b1 093e
00000050: 44ca 863d 438e fa3d 78ae bc3d 9569 abbd
00000060: f33f dc3c f830 a9bd e8a3 e1bd 89aa 263b
00000070: cf1a 973d 6f2f b13d 69a2 5b3e e9a1 0c3e
00000080: 7534 d03d fae8 2f3e bdf3 0a3e d93d 113c
00000090: 89a9 663e c00f c93d 8459 d73d 6e57 3e3e
000000a0: 88a6 01bd f721 453e c4b8 4ebd d103 ef3d
000000b0: 330d debd a281 3bbd 5583 c53d 7435 97bd
000000c0: 6ba1 073d 1b51 f33d 01df d93d 308b 683d
000000d0: eb37 593c 1300 ae3d aa44 223e 95b6 573e
000000e0: ddf8 7b3d 812b 4a3e 615d 253e af56 ce3d
000000f0: c3f3 f83d a84f 943d c01e 873d 4cd9 413c

network.6.weight f4 [65, 64]
0.035267454 0.08236454 -0.13740467 -0.009048888 0.087579615 -0.30003253 -0.0483266 -0.057260834
0.098015316 0.07529878 -0.07868996 -0.06641849 0.1199739 0.021774678 -0.021752702 -0.08061478
-0.037341088 0.0978991 0.09752916 -0.104906335 -0.041128833 0.12370871 -0.0017095677 -0.11206095
-0.10564746 -0.06882331 -0.015466654 0.058097247 0.08044664 0.07463099 -0.101795204 -0.18228258
0.04314283 -0.14490005 -0.018576154 -0.11310968 0.13426341 0.054046758 0.07878943 0.089008756
0.09083807 0.10192753 -0.010028687 0.10441444 -0.109203786 0.13574547 -0.067359395 0.13360657
-0.14377059 0.06688809 -0.08021422 -0.14370817 0.08402964 -0.23051666 -0.093202874 -0.0511805
0.12986395 0.06320585 0.10593679 0.0908155 0.090834975 -0.08218643 0.049523804 0.13029836
-0.28205577 -0.14746237 -0.14880088 0.15188716 0.07249446 -0.13714826 0.019898407 0.16078894
0.13710283 -0.12811683 0.052057356 -0.041354794 -0.08746632 0.11174527 0.12620123 0.048467822
-0.2512771 0.087471895 0.14682616 -0.115221314 -0.07619759 -0.10471772 0.14683488 -0.18813962
-0.16249937 0.107074074 0.027255123 -0.1741649 -0.054962017 0.08490502 0.13625422 -0.11804141
-0.14896084 -0.24840125 0.14260156 0.060479134 0.070075616 -0.23061512 0.1946172 -0.19547494
-0.18902908 0.07940803 0.20088515 -0.13510251 0.073069625 0.16007993 0.060909636 0.13194005
0.027970472 -0.062366128 -0.22107403 -0.04279561 0.17587228 -0.17082809 0.044356093 -0.1993299
-0.038855772 0.20369236 0.06018557 0.086180046 0.0788248 0.059261195 -0.13405444 -0.25582445
-0.13801663 0.08293225 0.15478094 0.040130176 -0.053283077 -0.044472907 0.07047318 -0.10812073
-0.18047126 -0.076076604 0.1601775 0.079098724 0.09191035 -0.1458071 -0.06460803 0.044814482
-0.16468877 0.02003983 0.07915564 -0.09850915 0.12241762 -0.04147036 0.086854555 0.0024493325
0.11022014 0.12788764 0.034260914 0.044072807 0.11506219 0.06194832 0.12026063 -0.25635576
0.05032132 0.057568006 0.09760098 0.03147488 -0.052291326 0.061973073 0.17250472 0.09564231
-0.1536068 0.09951676 -0.037822016 0.079359286 -0.10492978 -0.109731466 -0.118354745 -0.13341199
-0.069923125 0.04095699 0.075136594 -0.15450367 -0.035096716 -0.3128935 0.0850326 -0.13487877
0.08802959 0.0870511 0.0988255 -0.11058461 0.11013157 0.06433264 0.10579524 -0.10690421
0.020388143 -0.006217749 -0.06771691 0.11423611 0.085105576 -0.29760814 0.087098494 0.11020813
0.098792575 0.00032208645 0.16507806 0.1372927 0.010306269 0.08596854 -0.09347408 0.07914113
-0.26991433 0.08525156 0.13040459 -0.1097785 -0.052647725 0.15262355 0.11813935 -0.1450882
-0.1072752 -0.18441808 0.103771344 0.10397179 -0.17682815 0.081239596 0.09157892 0.0562227
0.035729427 -0.3144803 0.07089778 0.081539296 -0.042719893 -0.048039053 -0.05193818 -0.13351837
0.1136329 0.093312494 -0.1284223 -0.11643324 -0.17959443 0.13951226 -0.025470858 -0.14585257
0.056772146 0.024888316 0.032142445 -0.19714169 0.11845609 -0.04001026 0.04441469 0.10279311
0.078747004 -0.055958223 0.03144868 0.088393755 0.03613255 -0.10113449 0.08765935 0.020429661
00000000: 9b74 103d bdae a83d cfb3 0cbe ca41 14bc
00000010: f15c b33d dd9d 99be 1df2 45bd 568a 6abd
00000020: 41bc c83d 3f36 9a3d 3428 a1bd 6b06 88bd
00000030: e0b4 f53d cf60 b23c b932 b2bc 5d19 a5bd
00000040: f8f2 18bd 537f c83d 5ebd c73d 22d9 d6bd
00000050: b576 28bd fe5a fd3d 9313 e0ba 3680 e5bd
00000060: b25d d8bd 3cf3 8cbd d967 7dbc 61f7 6d3d
00000070: 35c1 a43d 22d8 983d 017a d0bd 49a8 3abe
00000080: 89b6 303d ae60 14be 052d 98bc 0ca6 e7bd
00000090: 597c 093e 2260 5d3d 5a5c a13d 394a b63d
000000a0: 4f09 ba3d 61bf d03d 5d4f 24bc 3dd7 d53d
000000b0: 3ca6 dfbd dc00 0b3e b9f3 89bd 29d0 083e
000000c0: 9938 13be 9ffc 883d 5a47 a4bd 3c28 13be
000000d0: bb17 ac3d 8f0c 6cbe 26e1 bebd a5a2 51bd
000000e0: 0efb 043e 1272 813d 63f5 d83d 7afd b93d
000000f0: b007 ba3d 5c51 a8bd 79d9 4a3d ef6c 053e
00000100: 9d69 90be 6000 17be 425f 18be 4f88 1b3e
00000110: fa77 943d 9870 0cbe fc01 a33c dba5 243e
00000120: af64 0c3e 0f31 03be 183a 553d a563 29bd
00000130: 8b21 b3bd b4da e43d e53a 013e 3286 463d
00000140: 64a7 80be 7724 b33d 9959 163e 27f9 ebbd
00000150: 7b0d 9cbd 3e76 d6bd e25b 163e aca7 40be
00000160: 3c66 26be a749 db3d 2346 df3c 4958 32be
00000170: da1f 61bd afe2 ad3d 3a86 0b3e b2bf f1bd
00000180: 3189 18be e65c 7ebe 2506 123e f8b8 773d
00000190: ce83 8f3d 5f26 6cbe bb49 473e 952a 48be
000001a0: d790 41be ada0 a23d d6b4 4d3e 5058 0abe
000001b0: 87a5 953d feeb 233e 627c 793d 4b1b 073e
000001c0: 5522 e53c a073 7fbd 3b61 62be 734a 2fbd
000001d0: dd17 343e 8fed 2ebe bcae 353d 231d 4cbe
000001e0: 3b27 1fbd bb94 503e 2585 763d 2a7f b03d
000001f0: e66e a13d debb 723d 9145 09be 6cfb 82be
00000200: 3b54 0dbe 62d8 a93d e57e 1e3e 8a5f 243d
00000210: 5b3f 5abd 3929 36bd 3e54 903d 676e ddbd
00000220: 75cd 38be 0dce 9bbd 9205 243e 83fe a13d
00000230: 7e3b bc3d 754e 15be 3751 84bd 648f 373d
00000240: 2ca4 28be 922a a43c 5a1c a23d 2abf c9bd
00000250: 17b6 fa3d d3dc 29bd cde0 b13d fb84 203b
00000260: 19bb e13d faf4 023e 2c55 0c3d b085 343d
00000270: baa5 eb3d 86bd 7d3d 354b f63d 1041 83be
00000280: ba1d 4e3d 6ecc 6b3d 06e3 c73d ceeb 003d
00000290: 6e2f 56bd 7ad7 7d3d 14a5 303e 1ee0 c33d
000002a0: 1a4b 1dbe 71cf cb3d 42eb 1abd 1f87 a23d
000002b0: 6de5 d6bd e4ba e0bd f963 f2bd 279d 08be
000002c0: db33 8fbd 84c2 273d 37e1 993d 3636 1ebe
000002d0: 93c1 0fbd 9433 a0be 9225 ae3d a91d 0abe
000002e0: dc48 b43d d947 b23d 0665 ca3d 2f7a e2bd
000002f0: a98c e13d d5c0 833d 2dab d83d 98f0 dabd
00000300: 0905 a73c 42be cbbb 2aaf 8abd 9ff4 e93d
00000310: d54b ae3d 1860 98be b260 b23d cdb4 e13d
00000320: c353 ca3d b6dd a839 390a 293e 7596 0c3e
00000330: a0db 283c 4610 b03d 576f bfbd bf14 a23d
00000340: 3632 8abe 5f98 ae3d c888 053e 8dd3 e0bd
00000350: 24a5 57bd 5949 1c3e 0bf3 f13d 0092 14be
00000360: 1ab3 dbbd 18d8 3cbe 1286 d43d 29ef d43d
00000370: 7012 35be f260 a63d bb8d bb3d c649 663d
00000380: 0559 123d 9003 a1be db32 913d 13fe a63d
00000390: 0efb 2ebd 99c4 44bd 21bd 54bd 0ab9 08be
000003a0: 5eb8 e83d 9f1a bf3d 2381 03be 8d74 eebd
000003b0: 9ae7 37be 4ddc 0e3e 43a8 d0bc 605a 15be
000003c0: e989 683d 95e2 cb3c cca7 033d 83df 49be
000003d0: 1b99 f23d cce1 23bd 2eec 353d 3285 d23d
000003e0: 1c46 a13d 7334 65bd 55d0 003d c907 b53d
000003f0: baff 133d 991f cfbd bf86 b33d 1b5c a73c

network.6.bias f4 [65]
-0.026855499 -0.07587952 0.12923801 0.021521242 0.025627032 0.23902428 0.098722495 -0.10598038
0.04958761 -0.16351277 -0.19759193 -0.062046856 -0.1474954 -0.120538965 -0.08236785 -0.16741998
-0.09830838 -0.11849537 -0.06856223 -0.16946657 -0.09919698 -0.028862577 -0.036761586 -0.14049497
-0.18123952 -0.03548341 -0.01610244 -0.2336014 -0.019938638 -0.2022533 -0.009655946 -0.032249283
-0.03966912 -0.20799758 -0.016246036 -0.12408805 -0.080541454 -0.16684556 -0.22772014 -0.12928182
-0.004117282 -0.07425612 -0.11426867 -0.15770589 0.018291134 -0.10905295 -0.0559865 -0.10459159
-0.08528605 -0.20995548 -0.049224198 -0.08707304 -0.06646557 0.0004900895 -0.1023041 -0.19471622
-0.118798 -0.075233184 -0.019433128 -0.1973788 -0.070841625 -0.23156878 -0.0687609 -0.0015994557
-0.04896312
00000000: 1000 dcbc b966 9bbd f856 043e 514d b03c
00000010: c8ef d13c c8c2 743e 052f ca3d 3e0c d9bd
00000020: 611c 4b3d e46f 27be 8a55 4abe d824 7ebd
00000030: 0909 17be 22dd f6bd 7ab0 a8bd 2570 2bbe
00000040: e755 c9bd b3ad f2bd 5b6a 8cbd a588 2dbe
00000050: c927 cbbd 3671 ecbc 5193 16bd eadd 0fbe
00000060: da96 39be 0d57 11bd 44e9 83bc 3535 6fbe
00000070: 5b56 a3bc 7d1b 4fbe f933 1ebc d317 04bd
00000080: 167c 22bd 51fd 54be 6816 85bc e021 febd
00000090: ebf2 a4bd 90d9 2abe 782f 69be 7462 04be
000000a0: 44ea 86bb 9813 98bd b105 eabd a77d 21be
000000b0: 4ad7 953c 2757 dfbd 1a52 65bd 1e34 d6bd
000000c0: 74aa aebd 92fe 56be 509f 49bd 5a53 b2bd
000000d0: 1a1f 88bd 5979 003a d084 d1bd b063 47be
000000e0: 5e4c f3bd db13 9abd 3932 9fbc ab1d 4abe
000000f0: 6a15 91bd 5e20 6dbe 84d2 8cbd d4a4 d1ba
00000100: 8d8d 48bd
