A1/MLP Classification on Image Features/best_hog_model.pth (torch, 857486 bytes, 20 tensors)

model.0.weight f4 [384, 288]
-0.05108393 -0.08564276 0.010903674 -0.007910174 0.012841245 -0.009062045 0.0059157577 -0.036630448
0.0018180499 0.024868585 -0.020718986 -0.029092245 0.031691503 0.01553806 -0.011411403 0.0072781295
0.01971216 0.03183514 0.022532204 -0.012031387 -0.034594033 -0.043663282 0.0392222 0.075899266
-0.041003093 0.0123580005 0.022964947 0.019723313 -0.0008982212 -0.018933294 0.036883257 -0.05789057
0.02811901 -0.03126079 -0.067981586 -0.010820567 -0.038643423 0.05788865 -0.018153625 0.03963675
-0.04524866 0.031391628 0.01239408 -0.01661416 0.05435951 -0.029253026 -0.07227689 -0.051220775
0.043720324 -0.0037259497 0.05108748 -0.065815665 0.008168471 -0.0013649977 -0.009466525 -0.0011510483
-0.022116529 0.05382736 -0.00791853 -0.016490432 -0.009519571 -0.02759613 -0.0024378952 0.073100135
0.04259106 -0.056233313 0.017181013 -0.024426516 -0.007910097 -0.066343345 0.016646925 0.03677779
-0.045504276 0.0050955308 -0.0038316448 0.015749764 0.021877939 0.01481315 -0.040240653 0.043569382
0.005079218 0.039883245 0.011065544 0.019471215 0.0072722174 -0.027883016 -0.042820934 0.0010875891
0.06407291 0.07479681 0.013507495 -0.011658588 0.011120311 -0.018016733 -0.0059031555 -0.016273817
-0.02143794 0.024955604 0.003960263 -0.019227916 0.04507771 -0.041514453 -0.036505554 -0.028331028
-0.021628855 0.044430662 0.027543286 0.0534651 0.048517287 0.027657606 -0.0009032305 -0.03014755
0.019193042 0.060563147 0.025534015 -0.0030996432 -0.0062752664 0.05608904 -0.007010477 -0.07311185
0.03808952 0.023256928 0.023245882 -0.030964782 -0.016875897 -0.03927487 0.036202677 0.021865737
-0.044697233 0.01934655 0.012754236 -0.011374708 -0.03649861 -0.0038610941 -0.036659777 -0.008644419
0.016115772 -0.0106655955 -0.050538383 0.003258936 0.013892014 -0.06397201 -0.10581904 0.0011420306
0.061813954 0.027320694 -0.0066217207 -0.07830348 -0.04189976 0.042019885 -0.044571303 -0.031369027
-0.039913673 -0.02808253 0.032981444 0.009452323 0.03309474 -0.033577636 -0.0021967823 -0.010195851
0.009987456 -0.034895327 -0.037929185 0.010792924 -0.022826608 0.016634542 -0.02948567 0.017437302
0.037887365 0.057060976 0.036262948 -0.015658863 -0.031878036 -0.06319826 0.02280253 0.0027985193
0.00095093634 -0.02224566 0.0047276677 -0.005522966 0.012346246 0.0459535 0.03338233 0.008522669
0.026443288 -0.0059428536 0.013374238 0.051902167 -0.03164646 -0.020377746 -0.0035294795 -0.02371353
0.017557856 0.006823811 0.032216527 -0.041835364 0.060574237 0.007851292 -0.035647746 -0.09629909
0.01118828 -0.10145885 0.023509257 -0.031854086 -0.0055256495 0.045684803 0.05951188 -0.010899713
-0.020648273 -0.01858653 0.0016109394 -0.066929914 -0.026058992 -0.0371766 -0.019208115 0.013045072
0.04207938 -0.023929203 0.0061809015 0.030711994 -0.038041968 -0.018871471 -0.02101366 0.053463478
0.063071765 0.030148434 0.03411623 0.032225728 0.015665488 -0.04263425 0.0010228417 0.030885644
0.014413518 0.06757727 -0.01764296 0.061801016 0.043719746 0.004257401 -0.054617345 -0.012143087
0.026940657 -0.03194266 -0.06858534 0.06715065 0.010554972 -0.0044439877 0.020179838 -0.027426057
-0.04245825 -0.020371951 -0.0020756233 0.016755667 0.030092021 0.025223754 -0.06100302 0.015415136
00000000: 623d 51bd 7965 afbd 53a5 323c ad99 01bc
00000010: 1664 523c f978 14bc f9d8 c13b cf09 16bd
00000020: a24b ee3a 34b9 cb3c ddba a9bc dc52 eebc
00000030: f3ce 013d 5993 7e3c e5f6 3abc 607d ee3b
00000040: 657b a13c 9065 023d 7595 b83c 4b1f 45bc
00000050: 79b2 0dbd 45d8 32bd 75a7 203d 1371 9b3d
00000060: dcf2 27bd 3679 4a3c fc20 bc3c c992 a13c
00000070: 9b76 6bba ff19 9bbc e612 173d aa1e 6dbd
00000080: d759 e63c 500b 00bd ee39 8bbd bf48 31bc
00000090: 9148 1ebd a61c 6d3d e9b6 94bc 255a 223d
000000a0: a956 39bd 8294 003d 8a10 4b3c 6b1a 88bc
000000b0: 14a8 5e3d 0ba4 efbc e805 94bd e0cc 51bd
000000c0: 1514 333d 102f 74bb 1b41 513d 5dca 86bd
000000d0: 0dd5 053c b9e9 b2ba 7c19 1bbc c6de 96ba
000000e0: b92d b5bc 147a 5c3d b9bc 01bc f116 87bc
000000f0: faf7 1bbc 4711 e2bc 18c5 1fbb 86b5 953d
00000100: f773 2e3d e754 66bd 32bf 8c3c 1e1a c8bc
00000110: 5a99 01bc 05df 87bd 225f 883c 4fa4 163d
00000120: b162 3abd 69f8 a63b 551c 7bbb a605 813c
00000130: 5d39 b33c dbb2 723c 62d3 24bd cf75 323d
00000140: 926f a63b 9d5c 233d 414c 353c 1982 9f3c
00000150: c84b ee3b ec6a e4bc 0165 2fbd 6f8d 8e3a
00000160: a838 833d 122f 993d 8a4e 5d3c aa03 3fbc
00000170: f731 363c d497 93bc 426f c1bb ab50 85bc
00000180: 9e9e afbc b26f cc3c 18c5 813b dd83 9dbc
00000190: 68a3 383d 0f0b 2abd d986 15bd 7916 e8bc
000001a0: ff2e b1bc edfc 353d 75a2 e13c 38fe 5a3d
000001b0: 10ba 463d 3492 e23c c6c6 6cba fff7 f6bc
000001c0: ba3a 9d3c 1011 783d b62c d13c 6223 4bbb
000001d0: c0a0 cdbb 9fbd 653d 25b8 e5bb aabb 95bd
000001e0: c203 1c3d 5085 be3c 266e be3c dba9 fdbc
000001f0: 523f 8abc b0de 20bd 4249 143d c61f b33c
00000200: 7214 37bd a87c 9e3c 25f7 503c fc5c 3abc
00000210: 917f 15bd 690a 7dbb 9028 16bd 52a1 0dbc
00000220: 3905 843c c0be 2ebc 5601 4fbd e093 553b
00000230: 549b 633c c203 83bd a7b7 d8bd 30b0 953a
00000240: a130 7d3d a6cf df3c 05fb d8bb 935d a0bd
00000250: 159f 2bbd 0b1d 2c3d 6690 36bd cf7c 00bd
00000260: 857c 23bd 550d e6bc 8d17 073d ebdd 1a3c
00000270: 5a8e 073d b488 09bd e4f7 0fbb 800c 27bc
00000280: 6da2 233c 67ee 0ebd a25b 1bbd ced4 303c
00000290: defe babc 2a45 883c ef8b f1bc acd8 8e3c
000002a0: c82f 1b3d c5b8 693d 7588 143d 0447 80bc
000002b0: 8b92 02bd 176e 81bd 5fcc ba3c 5d67 373b
000002c0: 4248 793a 883c b6bc 8dea 9a3b fff9 b4bb
000002d0: e947 4a3c bd39 3c3d e9bb 083d aaa2 0b3c
000002e0: 989f d83c 45bc c2bb 9f1f 5b3c 5e97 543d
000002f0: b89f 01bd 3bef a6bc d74e 67bb e042 c2bc
00000300: 7ed5 8f3c 479a df3b 7af5 033d 8f5b 2bbd
00000310: b11c 783d b5a2 003c 5f03 12bd 7538 c5bd
00000320: 0c4f 373c a8c9 cfbd 7c96 c03c 6e79 02bd
00000330: 8210 b5bb fd1f 3b3d bbc2 733d b694 32bc
00000340: 9126 a9bc c742 98bc 2826 d33a 8d12 89bd
00000350: ab79 d5bc 7e46 18bd 565a 9dbc ffba 553c
00000360: 6e5b 2c3d 2d07 c4bc 2989 ca3b b897 fb3c
00000370: e5d1 1bbd 5898 9abc d724 acbc 85fc 5a3d
00000380: c52b 813d d9f9 f63c 76bd 0b3d 20ff 033d
00000390: e954 803c 40a1 2ebd df10 863a e403 fd3c
000003a0: ad26 6c3c f465 8a3d f887 90bc 1023 7d3d
000003b0: 7a13 333d ab81 8b3b 70b6 5fbd ccf3 46bc
000003c0: a7b2 dc3c 4fd6 02bd 7976 8cbd 4886 893d
000003d0: c3ee 2c3c df9e 91bb 3050 a53c 9cac e0bc
000003e0: b4e8 2dbd 14e3 a6bc 2e07 08bb 2e43 893c
000003f0: 8b83 f63c 0ca2 ce3c 4dde 79bd c48f 7c3c

model.0.bias f4 [384]
-0.027681855 -0.0051728743 -0.024148567 -0.06269893 0.008390139 -0.009495362 -0.030437674 -0.006554569
0.05465435 -0.045025397 -0.005376459 -0.00023082338 0.021897417 -0.013442577 0.008049306 -0.009999935
0.019914353 -0.051187143 -0.051655777 -0.007709421 0.031010294 0.0069664023 0.044471283 0.008914716
0.03407092 0.016673572 0.009665586 -0.047609273 -0.029621182 -0.030771919 -0.029490212 -0.04164704
-1.5462449e-05 0.048839524 -0.0089774225 -0.041362453 0.004547685 -0.03667912 0.03904016 0.053138744
-0.009587389 -0.0323129 -0.016755944 0.028152587 -0.043002315 -0.041674316 -0.0028975226 -0.011657527
0.058157977 -0.050926507 -0.013491376 0.029990971 0.022171743 -0.049153704 -0.043804806 -0.016507208
-0.038317837 -0.05477871 0.015909506 -0.017233932 0.02661679 -0.007054501 0.031485945 0.045521498
-0.006954745 0.016008371 -0.0153431725 0.036500003 0.033233758 0.031215716 0.023888133 -0.014914185
-0.059374906 -0.05845423 0.0028715224 -0.059898194 -0.0069003445 -0.01881421 -0.029314376 0.02921693
-0.028308135 -0.012527221 0.0039394447 0.038241852 -0.0030619237 0.025573526 0.047569655 0.014227053
0.016829021 0.022584276 -0.057275854 0.004069066 0.029705873 0.022476261 0.010025471 0.036826763
-0.012225587 -0.057416428 0.025307281 0.025103064 -0.037911616 -0.04342701 0.059565727 0.007882079
0.030628903 -0.011730842 -0.052123234 0.011040424 0.05265287 0.06031998 -0.04599902 -0.006546296
0.057743363 0.022963613 0.07021437 -0.010547691 0.019660663 0.033288397 0.04116564 -0.02683291
-0.05002738 0.0019739098 0.0095340805 0.0205959 -0.030795643 -0.0033062994 0.00425622 0.02537028
-0.07037573 -0.009834101 -0.011815375 -0.004132018 0.009214793 0.011313624 -0.024865111 0.011029349
0.008028587 0.022276722 -0.033204805 -0.03758372 -0.052059136 0.044972975 -0.053072337 -0.051753826
-0.014768147 0.010951504 -0.022750808 0.0475512 0.024115274 0.013903934 0.013377356 0.001238677
-0.026982766 -0.054208387 -0.037927724 -0.061342333 0.013543222 -0.03179112 -0.014477492 -0.03119678
0.039104734 0.018073324 0.023530224 0.046516344 -0.06848549 0.012960609 -0.016232887 0.021821206
0.047801428 -0.0061009675 -0.018523684 -0.00992574 0.015811106 0.04607157 -0.029853305 0.05060703
-0.020482896 -0.0063313744 -0.003067364 0.0040975465 -0.06272093 0.006020042 0.0065569896 -0.03878794
0.028155562 0.0009986156 0.032481905 -0.016156629 0.038565245 -0.00015183087 -0.046077438 0.027062029
0.02574764 -0.046961024 0.023213439 -0.061275955 0.03423323 -0.02993446 0.012794713 -0.007371979
0.061406557 0.047280885 -0.042599257 -0.05290667 -0.00881626 0.063556515 -0.054154214 -0.014233722
0.012211939 -0.009290783 0.025176616 -0.004140088 -0.033489686 -0.007529497 0.02824682 0.018839018
-0.013753698 -0.055551834 -0.029144915 0.044061214 -0.041697014 -0.026935648 -0.014549342 0.014778598
0.035846397 0.035167642 -0.025825432 -0.014760709 -0.007323937 0.059451725 0.011359041 0.007455778
-0.042310677 0.05512116 -0.039230622 0.04819184 0.047435097 0.012842899 0.018103436 -0.015410559
0.0038679244 -0.003844863 -0.057991564 -0.05545698 0.029950516 -0.0012312281 -0.048226032 -0.026725315
0.015385758 0.042372968 -0.00797945 -0.053984173 0.012090372 0.03612082 -0.017350484 -0.024820188
00000000: 0fc5 e2bc 3781 a9bb 37d3 c5bc 4c68 80bd
00000010: cb76 093c 6f92 1bbc 6e58 f9bc b6c7 d6bb
00000020: 3ddd 5f3d 8d6c 38bd 022d b0bb 2e09 72b9
00000030: 3662 b33c 413e 5cbc 3de1 033c c4d6 23bc
00000040: 6d23 a33c 9ca9 51bd 0295 53bd 509f fcbb
00000050: 4d09 fe3c 6b46 e43b 8527 363d 070f 123c
00000060: f38d 0b3d 0497 883c 685c 1e3c f101 43bd
00000070: 1fa8 f2bc 6415 fcbc 7595 f1bc 1696 2abd
00000080: 5bb5 81b7 f40b 483d 0a16 13bc ad6b 29bd
00000090: bf04 953b d83c 16bd 93e8 1f3d 03a8 593d
000000a0: 6d14 1dbc 885a 04bd c343 89bc 41a0 e63c
000000b0: 3223 30bd b0b2 2abd 5de4 3dbb 36ff 3ebc
000000c0: 0f37 6e3d 5098 50bd ef0a 5dbc a0af f53c
000000d0: 84a1 b53c 6555 49bd ab6c 33bd 203a 87bc
000000e0: 2af3 1cbd a45f 60bd a754 823c 2d2e 8dbc
000000f0: 740b da3c 7229 e7bb 68f7 003d c074 3a3d
00000100: a1e4 e3bb fd23 833c ee61 7bbc 0781 153d
00000110: 1f20 083d 1ab8 ff3c 0cb1 c33c a05a 74bc
00000120: 1a33 73bd b46d 6fbd 2730 3c3b cf57 75bd
00000130: 491c e2bb 4220 9abc b424 f0bc 5858 ef3c
00000140: 76e6 e7bc f93e 4dbc 7516 813b 7da3 1c3d
00000150: 8eaa 48bb 927f d13c 66d8 423d 9618 693c
00000160: 04dd 893c a902 b93c 169a 6abd cd55 853b
00000170: bb59 f33c 2320 b83c e041 243c a9d7 163d
00000180: d44d 48bc 7d2d 6bbd 3751 cf3c f1a4 cd3c
00000190: 3649 1bbd 85e0 31bd 31fb 733d d623 013c
000001a0: 77e9 fa3c b832 40bc 2c7f 55bd e5e2 343c
000001b0: 89aa 573d 1512 773d 7869 3cbd 5082 d6bb
000001c0: 4e84 6c3d 301e bc3c 8dcc 8f3d 39d0 2cbc
000001d0: 660f a13c 6a59 083d 4d9d 283d b1d0 dbbc
000001e0: 83e9 4cbd b65c 013b d534 1c3c bcb8 a83c
000001f0: 2547 fcbc 80ae 58bb c377 8b3b 55d5 cf3c
00000200: 2721 90bd 361f 21bc 4695 41bc e165 87bb
00000210: a5f9 163c c75c 393c ebb1 cbbc 71b4 343c
00000220: 568a 033c ac7d b63c c301 08bd 63f1 19bd
00000230: f63b 55bd 9535 383d 6162 59bd d2fb 53bd
00000240: 19f6 71bc f06d 333c e75f babc 0cc5 423d
00000250: 658d c53c 53cd 633c b32c 5b3c 1a5b a23a
00000260: f60a ddbc 9d09 5ebd 1a5a 1bbd 1942 7bbd
00000270: 64e4 5d3c 6837 02bd 0133 6dbc 6490 ffbc
00000280: 492c 203d 820e 943c 75c2 c03c ec87 3e3d
00000290: 1f42 8cbd bc58 543c d5fa 84bc 63c2 b23c
000002a0: 6ecb 433d a0ea c7bb fbbe 97bc 929f 22bc
000002b0: 4b86 813c 8bb5 3c3d eb8e f4bc 5149 4f3d
000002c0: bfcb a7bc 6b77 cfbb d405 49bb b644 863b
000002d0: d573 80bd c643 c53b 04dc d63b 1ae0 1ebd
000002e0: 7ea6 e63c fbe3 823a bf0b 053d e85a 84bc
000002f0: 97f6 1d3d ca34 1fb9 b2bb 3cbd 30b1 dd3c
00000300: b7ec d23c 345a 40bd 1c2a be3c 7ffc 7abd
00000310: 2538 0c3d 1d39 f5bc eaa0 513c a490 f1bb
00000320: 7185 7b3d 9aa9 413d 8f7c 2ebd aab4 58bd
00000330: 1372 10bc eb29 823d cfd0 5dbd 8f34 69bc
00000340: 9614 483c 5e38 18bc 313f ce3c 93a9 87bb
00000350: 7b2c 09bd 00ba f6bb e065 e73c 4954 9a3c
00000360: 3157 61bc 528a 63bd 51c1 eebc 8879 343d
00000370: 7dca 2abd 26a8 dcbc 5d60 6ebc ef21 723c
00000380: acd3 123d f20b 103d db8f d3bc e7d6 71bc
00000390: a3fd efbb a783 733d 451b 3a3c 994f f43b
000003a0: f64d 2dbd bac6 613d 4ab0 20bd cf64 453d
000003b0: 4e4b 423d 066b 523c a84d 943c 927c 7cbc
000003c0: 017d 7d3b 19fa 7bbb 9088 6dbd dc26 63bd
000003d0: c95a f53c 2961 a1ba a988 45bd 0cef dabc
000003e0: 8c14 7c3c 478f 2d3d 3dbc 02bc 821e 5dbd
000003f0: b216 463c 6df3 133d 9a22 8ebc b553 cbbc

model.1.weight f4 [384]
1.0125662 0.9975846 1.0195428 0.9995498 0.9949568 0.98044074 0.96821976 1.0119991
1.0000737 1.0093894 0.983646 0.9796187 1.0194644 0.99875385 0.97875243 1.0271137
1.0261194 1.0150669 1.0194631 0.995023 1.0098541 0.9713025 0.98349655 1.0128014
1.0170063 1.0103165 1.0082862 0.98731536 1.0006416 1.0007046 1.0010593 0.9805761
1.0088426 1.0027109 1.0080649 0.97555876 1.0107051 0.99896634 0.9867387 1.0170189
0.9992992 0.99258125 0.9919412 0.9985648 0.9685414 0.97929925 1.0147294 0.98710567
1.032508 0.9879184 1.0135918 0.980119 0.9780128 0.98897296 1.0007999 0.9562331
1.0044321 0.9937416 0.9845993 0.9931552 0.9833011 0.9672412 0.9733678 1.0171963
1.0289955 1.022376 0.9677815 1.0099944 1.0150875 0.9639719 1.0060644 0.9818134
1.017622 1.0039698 0.9899782 1.0076398 1.0036092 0.98265773 1.0391709 1.0100186
0.9751814 0.9885989 1.0222232 0.99907786 0.97235245 0.9986046 0.9891408 0.9974871
1.0110604 0.9730798 1.0226264 1.0014284 1.0087123 0.98331463 0.99890524 1.0042402
0.9918105 1.0028497 0.9844567 0.98816746 1.0227098 1.0249634 0.987867 1.0037491
0.9750086 0.98783785 1.0120535 0.97120565 0.9942711 1.0099007 1.0113463 0.9923728
1.0129371 0.9725616 0.98963815 1.0169358 0.99952465 0.9886532 1.0059258 0.9725135
0.97876406 0.99600816 1.0279284 0.9747263 1.003691 0.97913855 0.9880626 1.0071398
1.0046929 0.9978677 0.99308497 0.9990654 1.0070144 0.9923512 0.9889388 0.9807624
0.9905721 0.9987758 1.0170357 0.99215627 0.9870591 0.9802621 1.0194457 1.0196848
0.9760287 0.9986814 1.0078163 1.0375221 1.0008348 0.9769896 1.0233703 0.956429
1.0047809 0.96727777 1.014081 1.0346066 0.96842325 1.0046179 0.99951 0.9945079
0.9989516 0.98527974 0.97011423 0.9823762 1.0053004 0.9682988 1.0033195 0.9740541
1.0275414 0.99882734 0.9724815 1.0043688 0.99774426 1.0014794 0.9949974 0.98117644
0.9912775 1.0304213 1.0164993 0.9939212 0.9778983 0.9845722 0.9698232 1.0008595
0.999827 1.0024031 0.99337196 1.0230558 0.9842604 0.986505 0.9962285 0.9901019
0.95804954 0.9996823 1.0122838 1.0239332 0.99008626 0.9922537 1.0096893 0.9920383
1.0274683 0.9518052 1.0050421 0.9917407 0.9664585 1.001708 0.9907723 0.98823863
0.9719372 0.9542787 1.0034783 1.0014528 0.9620236 0.9841571 0.96847785 0.9964449
1.0028664 1.0160503 1.0251842 1.0180981 0.9841761 0.98193604 0.98846143 1.0167899
0.96930206 0.97324944 0.9896471 0.98120356 0.9717136 0.9967769 0.9929075 1.0216416
0.99685735 0.982807 1.0089799 0.9554138 1.0093172 0.98416084 1.0167403 0.97638243
0.9821417 1.0103421 0.9910646 1.028335 0.9923125 1.0119456 0.96677816 0.9941268
1.0031238 0.99958134 0.98968774 1.0380459 1.0086484 1.0062106 0.9911842 0.9605242
00000000: c59b 813f b461 7f3f 6180 823f 7fe2 7f3f
00000010: 7db5 7e3f 2afe 7a3f 40dd 773f 3089 813f
00000020: 6a02 803f ac33 813f 39d0 7b3f 4bc8 7a3f
00000030: cf7d 823f 55ae 7f3f 858f 7a3f 7678 833f
00000040: e157 833f b6ed 813f c47d 823f d4b9 7e3f
00000050: e642 813f 48a7 783f 6ec6 7b3f 7aa3 813f
00000060: 432d 823f 0d52 813f 860f 813f b3c0 7c3f
00000070: 0615 803f 1717 803f b622 803f 0907 7b3f
00000080: c121 813f d558 803f 4508 813f 38be 793f
00000090: c95e 813f 42bc 7f3f e89a 7c3f ad2d 823f
000000a0: 13d2 7f3f ce19 7e3f dcef 7d3f f1a1 7f3f
000000b0: 54f2 773f 5bb3 7a3f a7e2 813f f5b2 7c3f
000000c0: 3929 843f 38e8 7c3f 60bd 813f 14e9 7a3f
000000d0: 0c5f 7a3f 552d 7d3f 361a 803f b1cb 743f
000000e0: 3b91 803f d965 7e3f b30e 7c3f 6b3f 7e3f
000000f0: 9fb9 7b3f 1f9d 773f a22e 793f 7d33 823f
00000100: 20b6 833f 37dd 823f 87c0 773f 7f47 813f
00000110: 63ee 813f ddc6 763f b8c6 803f 1f58 7b3f
00000120: 7041 823f 1582 803f 366f 7d3f 57fa 803f
00000130: 4476 803f 758f 7b3f 8d03 853f 4a48 813f
00000140: 7da5 793f d114 7d3f 36d8 823f 91c3 7f3f
00000150: 17ec 783f 8da4 7f3f 5538 7d3f 515b 7f3f
00000160: 6d6a 813f c21b 793f 6ce5 823f ce2e 803f
00000170: 7c1d 813f 82ba 7b3f 41b8 7f3f f18a 803f
00000180: 4be7 7d3f 615d 803f 5b05 7c3f 8bf8 7c3f
00000190: 28e8 823f 0032 833f dae4 7c3f da7a 803f
000001a0: 2a9a 793f f1e2 7c3f f88a 813f efa0 783f
000001b0: 8d88 7e3f 6d44 813f cc73 813f 250c 7e3f
000001c0: eca7 813f ccf9 783f ed58 7d3f f42a 823f
000001d0: d9e0 7f3f 6018 7d3f 2dc2 803f a5f6 783f
000001e0: 4890 7a3f 64fa 7e3f 2893 833f aa87 793f
000001f0: f278 803f d3a8 7a3f acf1 7c3f f5e9 803f
00000200: c799 803f 4274 7f3f d13a 7e3f c0c2 7f3f
00000210: d9e5 803f ba0a 7e3f 182b 7d3f 3f13 7b3f
00000220: 2296 7d3f c5af 7f3f 3a2e 823f f4fd 7d3f
00000230: e8af 7c3f 75f2 7a3f 327d 823f 0885 823f
00000240: 04dd 793f 96a9 7f3f 2000 813f 86cd 843f
00000250: 5b1b 803f fe1b 7a3f ccfd 823f 88d8 743f
00000260: a99c 803f 849f 773f 68cd 813f fd6d 843f
00000270: 96ea 773f 5297 803f e3df 7f3f 1298 7e3f
00000280: 4bbb 7f3f 4b3b 7c3f 6859 783f 027d 7b3f
00000290: afad 803f 6ee2 773f c66c 803f 9c5b 793f
000002a0: 7a86 833f 26b3 7f3f 8cf4 783f 288f 803f
000002b0: 2b6c 7f3f 7a30 803f 26b8 7e3f 612e 7b3f
000002c0: 5dc4 7d3f d8e4 833f a61c 823f 9f71 7e3f
000002d0: 8b57 7a3f ec0c 7c3f 5546 783f 2a1c 803f
000002e0: aaf4 7f3f bf4e 803f a04d 7e3f 7ef3 823f
000002f0: 7df8 7b3f 978b 7c3f d508 7f3f 5177 7d3f
00000300: bc42 753f 2eeb 7f3f 8492 813f 3e10 833f
00000310: 4b76 7d3f 5704 7e3f 803d 813f 39f6 7d3f
00000320: 1584 833f 81a9 733f 38a5 803f b8e2 7d3f
00000330: d369 773f f837 803f 41a3 7d3f 35fd 7c3f
00000340: e0d0 783f 9c4b 743f fa71 803f 9b2f 803f
00000350: 2e47 763f b8f1 7b3f 2aee 773f 0317 7f3f
00000360: ed5d 803f f00d 823f 3c39 833f 0a51 823f
00000370: f7f2 7b3f 2960 7b3f cf0b 7d3f 2c26 823f
00000380: 2e24 783f e026 793f 8359 7d3f 2830 7b3f
00000390: 39c2 783f c52c 7f3f 302f 7e3f 27c5 823f
000003a0: 0b32 7f3f 3d99 7b3f 4126 813f 0096 743f
000003b0: 4e31 813f f7f1 7b3f 8c24 823f 33f4 793f
000003c0: a36d 7b3f e452 813f 69b6 7d3f 7ba0 833f
000003d0: 3108 7e3f 6f87 813f c67e 773f 187f 7e3f
000003e0: 5c66 803f 90e4 7f3f 2d5c 7d3f b0de 843f
000003f0: 641b 813f 82cb 803f 3fbe 7d3f eae4 753f

model.1.bias f4 [384]
-0.071155615 -0.087144144 -0.070425086 -0.06629215 -0.07646481 -0.04644029 -0.0679287 -0.03163583
-0.06810207 -0.11232158 -0.058157068 -0.054236937 -0.09386554 -0.042386726 -0.022609297 -0.06696973
-0.09943297 -0.034462538 -0.0744772 -0.077719055 -0.071871534 -0.034363635 -0.063603945 -0.06308947
-0.071331315 -0.096858114 -0.06742812 -0.042594712 -0.058001824 -0.046053845 -0.05205059 -0.116256766
-0.065258585 -0.06170226 -0.082428776 -0.06642551 -0.029275412 -0.09370202 -0.081529684 -0.066594176
-0.060076144 -0.038575683 -0.13317028 -0.06778737 -0.082470156 -0.07491293 -0.063247725 -0.04026635
-0.032303788 -0.055083383 -0.103128254 -0.0806808 -0.060891733 -0.0916735 -0.074047476 -0.067657605
-0.08121703 -0.039445274 -0.06208356 -0.05676969 -0.04649148 -0.05545406 -0.06922692 -0.06928099
-0.048735186 -0.030879552 -0.09393872 -0.08890294 -0.065668404 -0.07216223 -0.09286246 -0.081207216
-0.06896432 -0.07558472 -0.04612718 -0.028339354 -0.057366904 -0.061585087 -0.047375474 -0.05557047
-0.03928091 -0.095812306 -0.03706629 -0.063691385 -0.06887881 -0.081444174 -0.034808632 -0.02783518
-0.047105834 -0.13232142 -0.05308323 -0.056305617 -0.08148691 -0.041607212 -0.088550396 -0.048762586
-0.038608544 -0.09816796 -0.0808559 -0.044287983 -0.08204814 -0.07055994 -0.05054347 -0.047502954
-0.033517405 -0.08189712 -0.049420375 -0.073065795 -0.08303934 -0.039902885 -0.08901296 -0.06461409
-0.032268584 -0.0429199 -0.09071913 -0.08342499 -0.03637688 -0.07083419 -0.050255813 -0.0418555
-0.07847506 -0.06571673 -0.05445772 -0.06566905 -0.061826367 -0.060394038 -0.060443923 -0.030749904
-0.06306156 -0.04359429 -0.036698047 -0.0813552 -0.08647454 -0.067818984 -0.077927716 -0.03319318
-0.09941207 -0.06927054 -0.06444881 -0.07436597 -0.07788772 -0.07932468 -0.05257025 -0.05757397
-0.06600691 -0.03502009 -0.086112194 -0.04848551 -0.019678807 -0.046466414 -0.031662844 -0.08436924
-0.05655791 -0.06305019 -0.096126996 -0.033402096 -0.07644514 -0.06321187 -0.054664012 -0.08561334
-0.065516084 -0.06794093 -0.100647815 -0.068583935 -0.04254951 -0.07362535 -0.059249863 -0.08112427
-0.043339364 -0.078643985 -0.063865036 -0.052778043 -0.06841731 -0.061261773 -0.07711923 -0.07065302
-0.07874093 -0.090400495 -0.049357448 -0.040865522 -0.075622804 -0.055214245 -0.07745734 -0.047939237
-0.073683165 -0.06515769 -0.060182486 -0.08560559 -0.058393482 -0.07355279 -0.101038314 -0.06922271
-0.06926794 -0.087067865 -0.069666274 -0.021675456 -0.08895099 -0.04469004 -0.0654055 -0.060132194
-0.07075366 -0.08123372 -0.07572229 -0.060658906 -0.066041425 -0.07694088 -0.08440302 -0.0624215
-0.05193746 -0.07670051 -0.030400708 -0.042342167 -0.066305056 -0.09015196 -0.11134854 -0.02822633
-0.081048794 -0.032920532 -0.06830631 -0.075472005 -0.055966508 -0.09222676 -0.04413182 -0.041203707
-0.041507874 -0.07714281 -0.06855055 -0.08070401 -0.044049244 -0.10261192 -0.03943423 -0.052476734
-0.065011375 -0.081431456 -0.03497384 -0.038641974 -0.05456103 -0.07116795 -0.058092497 -0.020352822
-0.042816076 -0.05172069 -0.050089493 -0.05279913 -0.1051642 -0.040427245 -0.054033022 -0.046989884
-0.07944757 -0.06694792 -0.071991034 -0.07123674 -0.07632407 -0.07365037 -0.061619747 -0.05434856
00000000: 09ba 91bd a178 b2bd 073b 90bd 2ec4 87bd
00000010: 9599 9cbd 2c38 3ebd 341e 8bbd 9294 01bd
00000020: 1979 8bbd db08 e6bd 1b36 6ebd 8d27 5ebd
00000030: 943c c0bd b49d 2dbd 2237 b9bc 6d27 89bd
00000040: 83a3 cbbd 9728 0dbd 8187 98bd 2b2b 9fbd
00000050: 6231 93bd e2c0 0cbd c942 82bd 0d35 81bd
00000060: 2716 92bd 8c5d c6bd c117 8abd cb77 2ebd
00000070: 5293 6dbd f5a2 3cbd 0033 55bd 0718 eebd
00000080: 4ba6 85bd 82bb 7cbd 6bd0 a8bd 190a 88bd
00000090: fdd2 efbc d8e6 bfbd 09f9 a6bd 8762 88bd
000000a0: 6712 76bd 8901 1ebd ca5d 08be 1bd4 8abd
000000b0: 1de6 a8bd f36b 99bd 0688 81bd 54ee 24bd
000000c0: fa50 04bd 1d9f 61bd e834 d3bd fa3b a5bd
000000d0: 9c69 79bd 51bf bbbd 34a6 97bd 1290 8abd
000000e0: 1d55 a6bd 5e91 21bd 554b 7ebd 5687 68bd
000000f0: da6d 3ebd cc23 63bd d8c6 8dbd 31e3 8dbd
00000100: 8c9e 47bd 1df7 fcbc f262 c0bd bf12 b6bd
00000110: 287d 86bd cbc9 93bd ac2e bebd f84f a6bd
00000120: 2a3d 8dbd 29cc 9abd dbef 3cbd ef27 e8bc
00000130: 8ff9 6abd a540 7cbd c90c 42bd dc9d 63bd
00000140: 05e5 20bd 3e39 c4bd d2d2 17bd a170 82bd
00000150: 5510 8dbd 34cc a6bd 7f93 0ebd 9a06 e4bc
00000160: 0cf2 40bd 447f 07be cd6d 59bd b8a0 66bd
00000170: 9ce2 a6bd 536c 2abd e959 b5bd 47bb 47bd
00000180: fe23 1ebd 490c c9bd c797 a5bd 5167 35bd
00000190: db08 a8bd bb81 90bd ab06 4fbd 7592 42bd
000001a0: 8c49 09bd adb9 a7bd 056d 4abd 85a3 95bd
000001b0: 8810 aabd 3571 23bd 6d4c b6bd 6454 84bd
000001c0: 102c 04bd c7cc 2fbd f4ca b9bd b9da aabd
000001d0: ecff 14bd 8411 91bd 0ad9 4dbd ac70 2bbd
000001e0: 88b7 a0bd 7e96 86bd 0f0f 5fbd 7f7d 86bd
000001f0: a53d 7dbd bd5f 77bd 0c94 77bd 39e7 fbbc
00000200: 6b26 81bd ed8f 32bd b150 16bd 8e9d a6bd
00000210: 9019 b1bd aee4 8abd 9198 9fbd 92f5 07bd
00000220: 8e98 cbbd b6dd 8dbd bdfd 83bd 304d 98bd
00000230: 9983 9fbd fa74 a2bd e753 57bd afd2 6bbd
00000240: a12e 87bd 3a71 0fbd 975b b0bd be98 46bd
00000250: 7335 a1bc 9153 3ebd e6b0 01bd c8c9 acbd
00000260: 44a9 67bd 7520 81bd 3bde c4bd a3d0 08bd
00000270: 458f 9cbd 3a75 81bd 5fe7 5fbd 0c56 afbd
00000280: 4c2d 86bd 9d24 8bbd 7120 cebd bc75 8cbd
00000290: 6548 2ebd e3c8 96bd fcaf 72bd 7b24 a6bd
000002a0: 9e84 31bd 1910 a1bd accb 82bd ca2d 58bd
000002b0: 601e 8cbd a0ed 7abd b0f0 9dbd 88b2 90bd
000002c0: ed42 a1bd e523 b9bd 092b 4abd 9b62 27bd
000002d0: 21e0 9abd 5528 62bd f4a1 9ebd ef5b 44bd
000002e0: 33e7 96bd 6571 85bd e981 76bd fc51 afbd
000002f0: 012e 6fbd d8a2 96bd 2ded cebd a3c4 8dbd
00000300: 5adc 8dbd a350 b2bd 31ad 8ebd ba90 b1bc
00000310: f02b b6bd e70c 37bd 52f3 85bd 2d4d 76bd
00000320: 4be7 90bd dd5d a6bd 4a14 9bbd 7975 78bd
00000330: ba40 87bd 2e93 9dbd 7edb acbd b0ad 7fbd
00000340: 60bc 54bd 2815 9dbd e80a f9bc fb6e 2dbd
00000350: f2ca 87bd 97a1 b8bd b40a e4bd e83a e7bc
00000360: e9fc a5bd aed7 06bd 2ee4 8bbd 1191 9abd
00000370: 233d 65bd 62e1 bcbd 91c3 34bd 38c5 28bd
00000380: 2904 2abd 0dfd 9dbd 3b64 8cbd 2548 a5bd
00000390: fb6c 34bd 3326 d2bd ca85 21bd d8f1 56bd
000003a0: af24 85bd 89c5 a6bd bb40 0fbd 0c47 1ebd
000003b0: 637b 5fbd 81c0 91bd 66f2 6dbd f6ba a6bc
000003c0: e95f 2fbd 13d9 53bd a42a 4dbd e743 58bd
000003d0: 5460 d7bd 0a97 25bd bb51 5dbd 7778 40bd
000003e0: 68b5 a2bd fe1b 89bd 0970 93bd 91e4 91bd
000003f0: cb4f 9cbd 01d6 96bd fd64 7cbd 989c 5ebd

model.1.running_mean f4 [384]
-0.028523296 0.009220462 -0.0046595493 -0.055163957 0.039211042 -0.013542599 -0.052819226 -0.007986742
0.041802753 -0.054529697 -0.0010364808 0.0021938842 0.017697569 -0.0092535755 0.003344819 -0.020941284
0.014586296 -0.06658407 -0.058258016 -0.009074423 0.036553394 0.011259381 0.068052754 0.009106722
0.0397196 0.01444662 0.02237955 -0.061183557 -0.009003932 -0.039444175 -0.027791949 -0.0349768
0.013502072 0.05435905 0.0032035746 -0.03517803 -0.002938158 -0.048002306 0.031428542 0.057223015
0.0074036643 -0.026250442 -0.013193639 0.025214909 -0.036538903 -0.038735762 -0.00018879266 -0.0035606686
0.07986464 -0.04813982 -0.019399395 0.033642273 0.01867039 -0.030590085 -0.04536496 0.001532514
-0.032858897 -0.042888362 0.018355237 -0.017616685 0.027685612 0.004689717 0.053445816 0.059873324
-0.007725558 0.032280054 -0.011319443 0.04198007 0.05082052 0.035276897 0.0013358387 -0.022635696
-0.07183709 -0.050268687 0.014107616 -0.04940942 0.0071662306 -0.02998485 -0.028014814 0.033571426
-0.037915457 0.005296593 0.008456663 0.048213705 -0.009666084 0.026700653 0.067390285 0.013131053
0.032409046 0.02926806 -0.0696155 0.0066895285 0.037716445 0.007295699 -0.0025289357 0.048349466
-0.008400015 -0.060900968 0.034576017 0.049274065 -0.039574664 -0.048334245 0.08404259 0.015836436
0.035087574 -0.013522484 -0.050144088 0.019527866 0.05523118 0.07948188 -0.036717787 0.004608392
0.07684675 0.027516065 0.07551272 -0.004618053 0.0204714 0.030539215 0.05491956 -0.020543303
-0.04657795 0.012749473 0.015050118 0.0072467374 -0.011248903 -0.0007702718 -0.0016599301 0.014396799
-0.08678044 -0.011048569 -0.014139589 0.001038891 0.007834931 0.010139819 -0.033594534 0.016654694
0.03226673 0.02320414 -0.029280039 -0.023433678 -0.05038105 0.05250632 -0.045914255 -0.059468366
-0.031844966 0.015230858 -0.0023225786 0.052822962 0.035322223 0.020916952 0.034766827 -0.003152188
-0.018690454 -0.04747145 -0.030523274 -0.062278606 0.008465225 -0.039870635 -0.014826743 -0.025343454
0.04033248 0.018142313 0.021980211 0.051421706 -0.054917492 0.03929028 -0.0019212011 0.017401123
0.047235623 -0.011094186 -0.0015966849 -0.02495518 0.017963702 0.043561593 -0.029136367 0.04091031
-0.019355336 -0.019373856 0.0041712793 -0.0038970811 -0.04796973 0.01554171 -0.00588514 -0.05687401
0.03240886 -0.0026761517 0.041646026 -0.026435185 0.032193437 -0.004319638 -0.02665102 0.023311613
0.023231646 -0.05194554 0.02381074 -0.06334416 0.030660845 -0.033113483 0.015008894 -0.0031677014
0.07464718 0.034195483 -0.042922035 -0.05481436 -0.0039038796 0.05894005 -0.045858216 -0.021149347
0.009236242 -0.002566106 0.020923957 0.00432918 -0.03381542 0.0032212283 0.0339394 0.021442242
-0.01160296 -0.050216254 -0.035484158 0.044753868 -0.02263247 -0.018960094 -0.0054523386 0.021978809
0.049068537 0.02343719 -0.016035695 -0.025859753 -0.01430165 0.07063693 0.025508547 0.00582652
-0.029146146 0.06633783 -0.048090182 0.031824905 0.04578828 0.0043327566 0.020819047 -0.013274402
0.0085783 -0.0073334593 -0.058143087 -0.071742825 0.03730636 -0.0024246462 -0.04813313 -0.022512518
0.012822485 0.040934555 0.009562142 -0.03851273 0.0036277662 0.052785642 -0.003795452 -0.013057284
00000000: b0a9 e9bc 6c11 173c 22af 98bb 9af3 61bd
00000010: c29b 203d c7e1 5dbc f958 58bd d3da 02bc
00000020: 5d39 2b3d 885a 5fbd 86da 87ba 45c7 0f3b
00000030: 7efa 903c 4f9c 17bc c034 5b3b 0e8d abbc
00000040: 5cfb 6e3c 3b5d 88bd f59f 6ebd e4ac 14bc
00000050: 03b9 153d 4479 383c 3e5f 8b3d 5c34 153c
00000060: 05b1 223d 84b1 6c3c 5155 b73c 9c9b 7abd
00000070: 3a85 13bc 3790 21bd f1ab e3bc d543 0fbd
00000080: cb37 5d3c 98a7 5e3d 10f3 513b d716 10bd
00000090: 1d8e 40bb 119e 44bd 37bb 003d ae62 6a3d
000000a0: 709a f23b 2b0b d7bc 222a 58bc 7f8f ce3c
000000b0: d1a9 15bd 64a9 1ebd a5f6 45b9 1b5a 69bb
000000c0: 1390 a33d 432e 45bd 7beb 9ebc 7bcc 093d
000000d0: a5f2 983c 0f98 fabc 9cd0 39bd a3de c83a
000000e0: 0d97 06bd b5ab 2fbd b95d 963c de50 90bc
000000f0: f0cc e23c 33ac 993b 00ea 5a3d bb3d 753d
00000100: ad26 fdbb 1738 043d 2f75 39bc 4bf3 2b3d
00000110: 2d29 503d 827e 103d 4f17 af3a 7f6e b9bc
00000120: 531f 93bd 8ae6 4dbd a123 673c 8861 4abd
00000130: b3d2 ea3b caa2 f5bc 537f e5bc 3182 093d
00000140: 3d4d 1bbd 0b8f ad3b d18d 0a3c bc7b 453d
00000150: 7f5e 1ebc 54bb da3c eb03 8a3d a123 573c
00000160: 59bf 043d 92c3 ef3c 9292 8ebd d533 db3b
00000170: 8f7c 1a3d c210 ef3b 80bc 25bb 170a 463d
00000180: 37a0 09bc 4b73 79bd 959f 0d3d 9ad3 493d
00000190: 0b19 22bd 21fa 45bd 851e ac3d 6abb 813c
000001a0: fdb7 0f3d 698d 5dbc e363 4dbd e7f8 9f3c
000001b0: 173a 623d 65c7 a23d 6465 16bd fe01 973b
000001c0: d461 9d3d 5f69 e13c 6aa6 9a3d 0953 97bb
000001d0: a3b3 a73c 602d fa3c 55f3 603d 6e4a a8bc
000001e0: 85c8 3ebd 2ae3 503c c594 763c 0a76 ed3b
000001f0: 524d 38bc 11ec 49ba 0392 d9ba 8de0 6b3c
00000200: f1b9 b1bd 0f05 35bc bca9 67bc 662b 883a
00000210: 155e 003c 7c21 263c 6c9a 09bd 6d6f 883c
00000220: 1e2a 043d 9c16 be3c b1dc efbc fcf7 bfbc
00000230: 5c5c 4ebd de10 573d 9610 3cbd 1a95 73bd
00000240: de6f 02bd d98a 793c 6736 18bb e45c 583d
00000250: 09ae 103d 075a ab3c a967 0e3d f094 4ebb
00000260: b91c 99bc 6c71 42bd f20b fabc da17 7fbd
00000270: bab1 0a3c 644f 23bd deeb 72bc 139d cfbc
00000280: ac33 253d 309f 943c d80f b43c 919f 523d
00000290: 2af1 60bd d8ee 203d d0d0 fbba cd8c 8e3c
000002a0: 247a 413d 64c4 35bc db47 d1ba ce6e ccbc
000002b0: 9d28 933c a46d 323d 64af eebc 9291 273d
000002c0: 158f 9ebc ecb5 9ebc 3aaf 883b 2c66 7fbb
000002d0: e87b 44bd a8a2 7e3c 22d8 c0bb b9f4 68bd
000002e0: 27bf 043d 6062 2fbb 0695 2a3d 9a8e d8bc
000002f0: 44dd 033d c08b 8dbb 3d53 dabc fff7 be3c
00000300: 4b50 be3c d9c4 54bd be0e c33c 95ba 81bd
00000310: 742c fb3c 01a2 07bd dde7 753c 3699 4fbb
00000320: 9fe0 983d 9010 0c3d 04cf 2fbd 0685 60bd
00000330: 3bd8 7fbb 1f6b 713d d3d5 3bbd 6541 adbc
00000340: 9b53 173c 1d2c 28bb b868 ab3c cbdb 8d3b
00000350: 0a82 0abd 3e1b 533b 0a04 0b3d a4a7 af3c
00000360: 571a 3ebc 8faf 4dbd d657 11bd d54f 373d
00000370: bb67 b9bc 3352 9bbc 88a9 b2bb e70c b43c
00000380: 17fc 483d 5aff bf3c 4a5d 83bc d5d7 d3bc
00000390: 7851 6abc 18aa 903d 4df7 d03c 64ec be3b
000003a0: e6c3 eebc 21dc 873d 36fa 44bd d55a 023d
000003b0: 7e8c 3b3d ccf9 8d3b b58c aa3c e17c 59bc
000003c0: ff8b 0c3c 844d f0bb 7227 6ebd e7ed 92bd
000003d0: 8ece 183d d0e6 1ebb 3f27 45bd 2c6c b8bc
000003e0: 6615 523c feaa 273d 88aa 1c3c 86bf 1dbd
000003f0: d1bf 6d3b c235 583d 1ebd 78bb 38ee 55bc

model.1.running_var f4 [384]
8.2131504e-05 0.00015116094 6.1466875e-05 9.531628e-05 0.00015969959 8.120952e-05 0.00043355976 0.000107041546
0.00013131567 0.0001703352 0.00015601685 8.0986305e-05 0.00012955422 0.0002073065 0.0004765803 0.00010299649
0.00013269209 0.00014009321 0.00018384596 6.469608e-05 0.0001022408 0.00019589569 0.00014697188 0.000115174276
0.00016691373 0.00012061296 0.00012255745 0.00018951998 0.00015627973 0.00016931698 7.8920944e-05 0.00019580977
9.4592666e-05 0.00012304181 0.00010519606 0.00015730581 0.00016698435 0.00016849636 0.00015888606 0.000107657586
6.506376e-05 0.00028161742 0.00013729489 9.348327e-05 0.00020548623 0.00011123169 9.145632e-05 0.00012910865
0.00021067253 0.00012791179 0.00021480936 0.000105348416 0.00013463991 0.00017176238 0.00017350583 0.000340285
9.335302e-05 0.00019597022 0.0001340476 0.00010167969 0.00027201427 0.00011991048 8.013484e-05 0.00010070444
0.000119704266 0.00019246945 0.00021681246 9.7356846e-05 9.61986e-05 9.9717356e-05 0.00030522287 0.00012925343
8.9065594e-05 0.0001420468 0.00047576657 0.00013001762 8.848379e-05 0.00017221489 0.00016953431 0.00012307584
0.00021762101 0.00010506173 0.00012548357 0.00010098482 0.00012427042 0.00010132249 6.731974e-05 0.00013007272
0.00010058997 9.835847e-05 0.000100620266 0.00011825141 0.00015406069 9.937714e-05 7.349232e-05 0.00019330635
0.00017519825 8.851509e-05 0.000111489884 0.00012011828 0.00014219826 8.259611e-05 7.883197e-05 0.00019305201
0.00010824602 0.00023622338 0.00011811701 0.0001932025 0.00018100157 0.00013772913 0.000107324595 0.0001173224
9.337609e-05 0.00018656047 8.3839805e-05 0.00012313177 0.00023917148 0.00012249227 0.00013087405 0.00027863495
0.00013684027 0.00012152086 6.193244e-05 0.0001642759 0.00010693683 0.00014435935 0.00013634074 0.00015363551
0.00018999321 0.0001892689 0.00010670086 9.8303404e-05 0.00010045824 8.175844e-05 0.00013449026 0.0002099245
0.00012907096 8.996217e-05 8.9384645e-05 0.00013625127 0.000112475565 0.00016638925 9.647456e-05 0.00036703082
0.00042517786 0.00013487441 8.027822e-05 8.9511974e-05 0.00026888752 0.00015417638 8.150197e-05 0.00015653009
0.00010877727 0.00012648963 0.00013970082 0.000105961786 0.00012314855 0.00011066645 0.00013244727 9.7544376e-05
0.0003428067 0.00011369515 0.00028808072 8.6367814e-05 0.00013679075 9.468714e-05 0.0002052187 0.00014474857
8.471761e-05 0.000103148646 0.00013048486 0.0001693455 0.000116774725 0.00013471152 0.0001917795 0.00028690585
0.00014684777 9.905494e-05 0.00022886634 0.00012172866 0.00031247214 0.00013728658 0.00019662609 0.000116517236
0.00012332441 0.00014296635 0.0001502992 0.00010891625 0.00011080171 0.00019154511 0.00013512048 0.00010219723
8.5631946e-05 0.00015150936 8.098161e-05 0.000108690154 8.660976e-05 0.00013953648 0.00015255436 0.00011389884
0.00016110504 0.00029545423 0.00014824077 0.00016024309 0.00016197044 0.00016664522 0.00016058737 0.00012851942
0.0004628664 0.00031983192 7.2290975e-05 0.00011558453 0.00017761133 0.00013545547 0.00011375151 0.00031287535
0.00013708205 0.00019059714 0.000220945 0.00010415212 0.00017022004 0.00014595721 0.00016071701 7.9631456e-05
0.00023911467 0.00011707919 9.8584256e-05 0.00016189336 0.0002693909 0.00014640094 0.00028773723 0.00014644601
0.00010111154 6.985502e-05 9.456206e-05 0.00012700181 0.00014066522 8.985334e-05 8.771205e-05 0.000102349855
0.00011147382 0.00010898111 0.00015428642 0.000108298926 0.00012686217 0.00012439644 0.00030602643 0.00016081313
0.00013790904 0.0003888472 0.000113363414 9.2184295e-05 0.00010879361 9.617686e-05 0.0001492986 0.00013666159
00000000: 043e ac38 f580 1e39 c7e7 8038 8ae4 c738
00000010: 0875 2739 074f aa38 684f e339 7e7b e038
00000020: c8b1 0939 029c 3239 7498 2339 31d7 a938
00000030: f2d8 0739 6a60 5939 86dd f939 d2ff d738
00000040: 4323 0b39 fce5 1239 c6c6 4039 72ad 8738
00000050: 1d6a d638 5969 4d39 771c 1a39 b889 f138
00000060: 9005 2f39 97f1 fc38 c482 0039 e2b9 4639
00000070: 05df 2339 ae8a 3139 5c82 a538 4952 4d39
00000080: 0d60 c638 c904 0139 b49c dc38 75f2 2439
00000090: 8518 2f39 66ae 3039 a79a 2639 3ac6 e138
000000a0: d772 8838 0da6 9339 d1f6 0f39 730c c438
000000b0: ca77 5739 0f45 e938 3dcc bf38 5761 0739
000000c0: fae7 5c39 0f20 0639 733e 6139 80ee dc38
000000d0: 202e 0d39 1d1b 3439 1eef 3539 4868 b239
000000e0: 85c6 c338 5b7d 4d39 218f 0c39 de3c d538
000000f0: 239d 8e39 7378 fb38 110e a838 4931 d338
00000100: bd09 fb38 a0d1 4939 2758 6339 0f2c cc38
00000110: 3bbe c938 591f d138 5206 a039 3488 0739
00000120: bac8 ba38 66f2 1439 4f70 f939 5755 0839
00000130: 5f90 b938 9594 3439 05c5 3139 eb0d 0139
00000140: 3231 6439 9654 dc38 3d94 0339 d0c7 d338
00000150: 964e 0239 197d d438 032e 8d38 2164 0839
00000160: d4f3 d238 cd45 ce38 1804 d338 befd f738
00000170: 5a8b 2139 b268 d038 e41f 9a38 47b2 4a39
00000180: 6cb5 3739 2da1 b938 adcf e938 03e8 fb38
00000190: 0e1b 1539 7337 ad38 9752 a538 016e 4a39
000001a0: 2402 e338 bbb2 7739 96b5 f738 6796 4a39
000001b0: 3dcb 3d39 626b 1039 7413 e138 fc0a f638
000001c0: e8d2 c338 729f 4339 27d3 af38 ef1c 0139
000001d0: 1bca 7a39 4571 0039 3c3b 0939 c015 9239
000001e0: c87c 0f39 04d9 fe38 bae1 8138 7a41 2c39
000001f0: 4643 e038 2b5f 1739 b0f6 0e39 3819 2139
00000200: ea38 4739 7c76 4639 97c4 df38 3d28 ce38
00000210: 1bad d238 ba75 ab38 f405 0d39 2e1f 5c39
00000220: 3957 0739 12aa bc38 0474 bb38 acde 0e39
00000230: dce0 eb38 c678 2e39 6352 ca38 0b6e c039
00000240: 68ea de39 136d 0d39 0b5b a838 60b8 bb38
00000250: 79f9 8c39 68aa 2139 09ec aa38 3a22 2439
00000260: 5a1f e438 4da2 0439 a77c 1239 cd37 de38
00000270: 7021 0139 9915 e838 8be1 0a39 bd90 cc38
00000280: bdba b339 9e6f ee38 8a09 9739 5e20 b538
00000290: 7d6f 0f39 c592 c638 fa2f 5739 a6c7 1739
000002a0: 6caa b138 8251 d838 c3d2 0839 5692 3139
000002b0: f4e4 f438 5941 0d39 6b18 4939 da6b 9639
000002c0: 26fb 1939 b7bb cf38 d7fb 6f39 9448 ff38
000002d0: 4dd3 a339 96f4 0f39 6a2d 4e39 b75a f438
000002e0: a550 0139 3de9 1539 a299 1d39 f769 e438
000002f0: 375e e838 80d9 4839 21af 0d39 b852 d638
00000300: 4d95 b338 7cde 1e39 acd4 a938 95f0 e338
00000310: 43a2 b538 8a50 1239 00f7 1f39 f9dc ee38
00000320: 4eee 2839 32e7 9a39 1471 1b39 ed06 2839
00000330: 9cd6 2939 7cbd 2e39 5863 2839 2bc3 0639
00000340: e0ac f239 1daf a739 ec9a 9738 f965 f238
00000350: 2e3d 3a39 0d09 0e39 e08d ee38 6b09 a439
00000360: afbd 0f39 08db 4739 79ad 6739 3e6c da38
00000370: 187d 3239 170c 1939 2586 2839 d0ff a638
00000380: dbba 7a39 6988 f538 05bf ce38 ebc1 2939
00000390: 093d 8d39 3483 1939 70db 9639 4d8f 1939
000003a0: d80b d438 217f 9238 9f4f c638 ca2b 0539
000003b0: 887f 1339 a56f bc38 0cf2 b738 a9a4 d638
000003c0: 0dc7 e938 ca8c e438 f2c7 2139 8b1e e338
000003d0: 4e06 0539 6a70 0239 2c72 a039 f29f 2839
000003e0: ad9b 1039 30de cb39 85bd ed38 1153 c138
000003f0: 2028 e438 8fb2 c938 0a8d 1c39 d14c 0f39

model.4.weight f4 [192, 384]
0.0032573424 -0.0514485 -0.024370573 0.054573756 -0.04423664 -0.0032592881 -0.0141126 -0.045825806
-0.0075308057 0.021961104 0.0022116809 -0.054969262 -0.039537694 -0.01588035 -0.023195751 0.021747814
-0.023467181 0.058232166 0.01989307 -0.0061432 -0.00034116535 0.008066351 0.015085202 0.017802978
-0.0404836 -0.004377737 -0.04272049 -0.046847183 -0.04167323 0.052942947 -0.019542169 0.023815595
-0.019802177 -0.029226253 -0.054259997 0.019184722 -0.032435488 -0.011548694 -0.027874867 0.025341649
-0.042311996 0.015034084 -0.0041024215 -0.02247112 -0.014436863 -0.025839383 -0.021393903 -0.00030575204
0.027080942 0.011224497 0.026442613 -0.017930062 -0.03333225 -0.013809433 -0.05482035 0.035824936
-0.030342124 0.029739473 -0.0095231235 0.042709067 0.020963531 0.02963009 -0.043314118 -0.008887981
-0.052158386 -0.025119746 0.028941203 0.023885956 -0.0326883 0.0049389414 -0.026144475 0.015123846
-0.03728566 -0.030677853 0.025154592 -0.013676091 0.0087903375 -0.0261782 -0.0026152977 0.007731276
-0.027185168 0.039693803 0.011179908 -0.05168232 0.037373215 -0.063569695 -0.037314378 0.06747462
0.011443103 -0.018857967 -0.01602096 -0.031207042 -0.03564032 -0.013568056 0.018538348 -0.025342567
0.05350968 -0.072762914 -0.019436426 0.055608805 -0.03750676 0.038500883 -0.004124913 -0.012122704
0.02512137 0.057843033 -0.031825814 0.042446207 0.0061070193 -0.053233907 0.06708125 -0.010687084
-0.01886701 0.011857886 -0.020055337 0.024011912 -0.027059264 -0.044953585 0.010154072 -0.018611541
0.040447112 0.016508892 0.008994862 -0.01739481 0.03622012 -0.012773145 0.04668061 -0.03105399
0.031218383 0.029442046 -0.034953285 0.014142909 -0.043781884 -0.025378108 0.0019652557 0.06768475
-0.024956103 -0.0018590649 -0.07834545 -0.051285584 -0.014311322 -0.009062743 -0.0592233 -0.027772188
0.034625415 -0.03904737 -0.013625802 0.022912156 0.0089273555 -0.06089174 -0.051608168 -0.053816177
0.023131374 -0.051476113 0.008053422 -0.031264707 0.07487984 0.04755774 -0.018463226 -0.016168192
0.005077042 0.0018363174 -0.024195984 -0.061334614 -0.03226471 -0.0013660464 -0.03508779 -0.03238592
-0.025803253 -0.012852114 0.008966323 0.04008858 0.012341779 -0.01890583 -0.07762199 -0.023759034
-0.011122118 -0.063651055 -0.009847348 0.016265215 -0.0016391397 -0.02913637 0.031783517 -0.038086757
0.02192828 0.04156061 -0.004782873 -0.03260181 -0.030038897 -0.0401101 -0.028463112 -0.026351877
0.026463268 0.0153464 -0.025340028 -0.030712595 -0.049035612 0.035400383 -0.033462934 -0.022569247
-0.0075144316 -0.033874594 0.01753812 0.005384116 0.024169307 -0.034451008 0.035620753 0.023150522
0.013578959 -0.004139007 -0.0022202325 -0.023728559 -0.03498804 -0.025383675 -0.037791062 -0.012029076
-0.008802134 0.025790012 0.051379208 0.012053803 -0.035068072 -0.052949365 -0.018216882 -0.039420724
0.041138254 -0.018372156 0.024601126 -0.053206038 -0.03596852 0.016057659 -0.00807389 -0.07119954
-0.016609823 -0.012325887 0.05977503 -0.016867097 -0.02760739 -0.0037221308 -0.006065903 -0.0025754832
-0.016458843 -0.023652544 0.033354513 0.03373523 -0.032877773 0.030316435 -0.016455714 -0.013344566
0.034448627 0.04777717 -0.013254867 -0.010240067 -0.0018996776 -0.02587638 -0.012589696 0.016839495
00000000: 2379 553b aabb 52bd cca4 c7bc bb88 5f3d
00000010: 7b31 35bd c899 55bb 8938 67bc d7b3 3bbd
00000020: fac4 f6bb c6e7 b33c d9f1 103b 7327 61bd
00000030: 47f2 21bd 8217 82bc 0405 bebc 7928 b23c
00000040: 3f3e c0bc da84 6e3d cbf6 a23c e64c c9bb
00000050: 70de b2b9 ba28 043c ec27 773c 8dd7 913c
00000060: 22d2 25bd 1f73 8fbb aefb 2ebd d5e2 3fbd
00000070: 8cb1 2abd b4da 583d e616 a0bc ec18 c33c
00000080: 2d38 a2bc e56b efbc bb3f 5ebd 4729 9d3c
00000090: 13db 04bd bc36 3dbc d559 e4bc 4a99 cf3c
000000a0: 584f 2dbd 8551 763c 9b6d 86bb 5b15 b8bc
000000b0: 9888 6cbc 1dad d3bc 4442 afbc 584d a0b9
000000c0: dad8 dd3c f4e6 373c 2e9e d83c 11e2 92bc
000000d0: 6687 08bd f640 62bc 4e8b 60bd 2bbd 123d
000000e0: 0c90 f8bc 32a0 f33c e006 1cbc b4ef 2e3d
000000f0: b6bb ab3c cdba f23c 256a 31bd e59e 11bc
00000100: 08a4 55bd edc7 cdbc 1a16 ed3c 7bac c33c
00000110: 2be4 05bd d8d6 a13b f02c d6bc 02ca 773c
00000120: d9b8 18bd 1f50 fbbc 0111 ce3c af11 60bc
00000130: 5905 103c aa73 d6bc 6a65 2bbb a556 fd3b
00000140: 6eb3 debc f895 223d ef2b 373c d7b0 53bd
00000150: a814 193d d430 82bd f6d6 18bd 2230 8a3d
00000160: da7b 3b3c 067c 9abc 633e 83bc e9a5 ffbc
00000170: 96fb 11bd 8d4c 5ebc bcdd 973c 379b cfbc
00000180: f72c 5b3d b904 95bd 2439 9fbc 0fc6 633d
00000190: b0a0 19bd 1ab3 1d3d 472a 87bb 4e9e 46bc
000001a0: 55cb cd3c d1ec 6c3d c95b 02bd 13dc 2d3d
000001b0: 641d c83b cc0b 5abd e561 893d e118 2fbc
000001c0: fd8e 9abc 9447 423c 174b a4bc a1b4 c43c
000001d0: 64ab ddbc 4021 38bd 445d 263c 3b77 98bc
000001e0: dfab 253d a83d 873c 305f 133c 907f 8ebc
000001f0: 8c5b 143d 7446 51bc 2b34 3f3d f064 febc
00000200: b2bd ff3c 7230 f13c 2d2b 0fbd a9b7 673c
00000210: a254 33bd c0e5 cfbc 85cb 003b 4d9e 8a3d
00000220: be70 ccbc deab f3ba 9473 a0bd d510 52bd
00000230: 097a 6abc e67b 14bc 2294 72bd 8082 e3bc
00000240: 61d3 0d3d 23f0 1fbd c13e 5fbc 46b2 bb3c
00000250: 0b44 123c 9e69 79bd 1663 53bd 5a6e 5cbd
00000260: 027e bd3c 9ed8 52bd 80f2 033c 6c0f 00bd
00000270: 9a5a 993d e8cb 423d 3140 97bc 2873 84bc
00000280: 515d a63b 96b0 f03a a836 c6bc 013a 7bbd
00000290: 0028 04bd e90c b3ba 37b8 0fbd 19a7 04bd
000002a0: 5861 d3bc ac91 52bc 7ce7 123c ec33 243d
000002b0: 2c35 4a3c 66e0 9abc 47f8 9ebd 4ea2 c2bc
000002c0: 8b39 36bc 7c5b 82bd c556 21bc a13e 853c
000002d0: 67d8 d6ba 66af eebc 6f2f 023d dc00 1cbd
000002e0: f0a2 b33c 753b 2a3d a6b9 9cbb 7a89 05bd
000002f0: 2214 f6bc 7d4a 24bd 792b e9bc e4df d7bc
00000300: 7fc9 d83c 786f 7b3c e495 cfbc fb98 fbbc
00000310: 91d9 48bd feff 103d 6e10 09bd 24e3 b8bc
00000320: 9f3b f6bb 16c0 0abd 1aac 8f3c 3d6d b03b
00000330: b6fe c53c 801c 0dbd 11e7 113d 2aa6 bd3c
00000340: 487a 5e3c 82a0 87bb 5281 11bb 6562 c2bc
00000350: 9e4f 0fbd 6df1 cfbc cdca 1abd 9a15 45bc
00000360: d336 10bc 9345 d33c 0173 523d 507d 453c
00000370: 8aa3 0fbd 6fe1 58bd 923b 95bc a077 21bd
00000380: 9680 283d 3481 96bc 4d88 c93c 93ee 59bd
00000390: ba53 13bd 5a8b 833c 5948 04bc 10d1 91bd
000003a0: 5311 88bc 84f2 49bc a9d6 743d de2c 8abc
000003b0: e528 e2bc feee 73bb 7cc4 c6bb 70c9 28bb
000003c0: b2d4 86bc fbc2 c1bc be9e 083d f42d 0a3d
000003d0: d8aa 06bd 2c5a f83c 22ce 86bc 2ba3 5abc
000003e0: 011a 0d3d feb1 433d f12a 59bc f4c5 27bc
000003f0: 9afe f8ba b4fa d3bc 0345 4ebc fbf2 893c

model.4.bias f4 [192]
0.02753075 -0.027679503 -0.00037197056 -0.032163214 0.009444023 -0.032813407 -0.008767097 0.022766506
-0.010335183 -0.03828567 0.041171096 -0.035167232 0.0379671 0.04940118 0.010615761 0.0046576615
-0.036029916 -0.0476077 0.03795767 -0.018839499 0.015562917 -0.012390917 -0.04566582 -0.012190802
0.011356414 0.028694067 0.01719807 0.049738195 0.022811564 -0.04880383 -0.011959267 0.022048242
-0.0275494 -0.046705864 0.045316134 0.015745075 -0.048970923 -0.005867904 -0.031048812 -0.017568108
-0.005237159 0.04664506 0.027735127 0.042822737 -0.014162969 -0.03891538 -0.031076547 0.013114685
0.048291534 -0.04835621 0.04668289 -0.004421681 0.0006180319 0.032575134 0.015897183 -0.019232154
0.0346981 0.0037380431 0.030914849 0.028608643 0.03385615 -0.0371194 -0.011982115 -0.029866925
0.031087136 0.0074040308 0.042616405 -0.035751253 -0.023648057 -0.017111138 0.012435066 -0.02445066
-0.015370584 0.030541634 0.019153766 0.046157427 -0.036584772 0.04507008 0.024732137 -0.0072474945
-0.008754191 0.015977485 -0.018877001 0.029650541 -0.015195324 0.004360047 -0.040974513 -0.0033983772
-0.037181135 0.035424896 -0.00890768 0.020983538 -0.01919948 -0.048952278 0.026515646 -0.027271949
-0.029066574 0.05022674 -0.016174944 -0.04159973 -0.043289833 0.020626549 -0.02912417 -0.031838268
0.026500335 -0.009355287 0.041781165 -0.049264766 -0.02206013 -0.04367792 -0.007532261 -0.032179434
-0.02798329 0.008856698 0.015981546 -0.046559136 0.025701493 -0.033741646 -0.012547838 0.0068428577
-0.03094399 -0.011953826 -0.014226881 -0.01673997 0.008952611 0.0091731865 -0.02718678 -0.05074308
0.046844345 0.046691786 0.034077264 0.039352667 -0.03565636 -0.0090427175 -0.029660085 -0.03067284
0.014719602 0.0029274735 -0.013066959 0.02949864 -0.006435206 -0.0009803805 -0.02889622 -0.023681805
-0.049872935 0.041390385 0.0070392434 -0.015263925 -0.012800848 -0.015308075 -0.00033588885 -0.030512093
0.026852038 -0.027541881 0.031598642 0.03132975 0.031852826 -0.018819386 -0.017775873 0.050042834
0.0389104 0.022399059 0.015230883 0.0018328935 -0.026130376 -0.007273794 0.048438363 -0.029322466
-0.030491004 -0.04228666 0.03148001 -0.00020795374 0.000669822 -0.028560024 -0.048983496 -0.04645484
0.04466745 0.0032264173 0.04274163 -0.013718615 -0.04866015 -0.010135268 -0.049692534 -0.021629706
0.041549865 0.008623644 -0.04729672 0.003802941 -0.024099566 0.023311436 -0.034158632 -0.035127606
00000000: 2b88 e13c 20c0 e2bc 0b05 c3b9 93bd 03bd
00000010: 1abb 1a3c 5a67 06bd dfa3 0fbc d380 ba3c
00000020: e654 29bc 6fd1 1cbd 06a3 283d 840b 10bd
00000030: 6483 1b3d e458 4a3d bbed 2d3c 4c9f 983b
00000040: 1b94 13bd 4b00 43bd 8079 1b3d 4b55 9abc
00000050: 9bfb 7e3c 4603 4bbc 150c 3bbd eebb 47bc
00000060: 4110 3a3c d20f eb3c f8e2 8c3c 47ba 4b3d
00000070: 51df ba3c 86e6 47bd cdf0 43bc 849e b43c
00000080: 48af e1bc a64e 3fbd 699d 393d d1fb 803c
00000090: bc95 48bd 8c47 c0bb 145a febc feea 8fbc
000000a0: 799c abbb e40e 3f3d c734 e33c e566 2f3d
000000b0: cc0b 68bc bc65 1fbd 3e94 febc fade 563c
000000c0: 58cd 453d 2911 46bd 8f36 3f3d c0e3 90bb
000000d0: 6b03 223a 816d 053d cf3a 823c c08c 9dbc
000000e0: 981f 0e3d f5f9 743b 2341 fd3c ac5c ea3c
000000f0: bfac 0a3d 830a 18bd a250 44bc 7bab f4bc
00000100: 73aa fe3c 839d f23b 8a8e 2e3d e86f 12bd
00000110: 92b9 c1bc a82c 8cbc 72bc 4b3c c04c c8bc
00000120: e7d4 7bbc 7332 fa3c 5ce8 9c3c 920f 3d3d
00000130: ead9 15bd 679b 383d 0d9b ca3c 647c edbb
00000140: bd6d 0fbc 37e3 823c f1a3 9abc b1e5 f23c
00000150: cff5 78bc bade 8e3b e4d4 27bd 4fb7 5ebb
00000160: 3f4b 18bd b219 113d 85f1 11bc abe5 ab3c
00000170: 3a48 9dbc 2f82 48bd 5737 d93c 6c69 dfbc
00000180: 061d eebc 8eba 4d3d 5181 84bc 7a64 2abd
00000190: ae50 31bd 02f9 a83c d095 eebc d868 02bd
000001a0: 3b17 d93c eb46 19bc ba22 2b3d dac9 49bd
000001b0: 72b7 b4bc 9ee7 32bd 2fd1 f6bb 95ce 03bd
000001c0: 363d e5bc af1b 113c bbeb 823c cbb4 3ebd
000001d0: f08b d23c ae34 0abd 7295 4dbc 0d3a e03b
000001e0: 407e fdbc fbd9 43bc dd17 69bc 4322 89bc
000001f0: f9ad 123c 224b 163c cfb6 debc fad7 4fbd
00000200: dbdf 3f3d e33f 3f3d 9a94 0b3d 4330 213d
00000210: 670c 12bd e827 14bc b5f9 f2bc 9c45 fbbc
00000220: 7c2a 713c dbda 3f3b cc16 56bc 22a7 f13c
00000230: 6cde d2bb 1c80 80ba c4b7 ecbc 5800 c2bc
00000240: 9047 4cbd f788 293d 74a9 e63b 8b15 7abc
00000250: a6ba 51bc b8ce 7abc 3d1a b0b9 7ff4 f9bc
00000260: cef8 db3c 839f e1bc 946d 013d a053 003d
00000270: 1c78 023d 1d2b 9abc b59e 91bc b7f9 4c3d
00000280: 8360 1f3d 3b7e b73c f48a 793c b33d f03a
00000290: 5f0f d6bc 0259 eebb 4e67 463d ab35 f0bc
000002a0: 45c8 f9bc c734 2dbd 2ff1 003d 280e 5ab9
000002b0: fe96 2f3a b6f6 e9bc eba2 48bd 6e47 3ebd
000002c0: 37f5 363d 4d72 533b d911 2f3d 0bc4 60bc
000002d0: de4f 47bd 650e 26bc 668a 4bbd c830 b1bc
000002e0: 3130 2a3d 2f4a 0d3c 35ba 41bd c33a 793b
000002f0: 746c c5bc a0f7 be3c ece9 0bbd f7e1 0fbd
